checkpoint_actor_1.pth (torch_old, 358589 bytes, 12 tensors)

fc1.weight f4 [300, 24]
000000 2d 8c f6 3e a2 07 da 3c 58 67 72 3e 81 1b 7c 3e
       0.4815382 0.026614968 0.23672235 0.24619867
000010 b2 ad 5a 3f 78 cb 8f be 27 a2 42 3e f6 b9 b2 3e
       0.8542129 -0.28084922 0.19007169 0.34907502
000020 3c 81 af 3e 2a 8c 1e 3e be a3 82 bd 76 41 0e 3f
       0.34278286 0.15483156 -0.063788876 0.55568635
000030 a1 09 31 3f 72 fa d8 be 26 30 99 bd 49 ce 1c 3f
       0.6915532 -0.42378575 -0.07479887 0.61252266
000040 6b 06 f6 3e 2d ac 83 3e 0f dc e0 3d 59 3e ab 3e
       0.48051772 0.25717297 0.10979473 0.33446005
000050 2a 43 22 3f df 3b bd be d4 7b 26 3e 1b 7e 95 3e
       0.63383734 -0.3695974 0.16258174 0.29197773
000060 ee 7b fd be 3c 70 83 3e 59 e4 ba 3c b0 b0 be 3e
       -0.49508613 0.25671566 0.022813963 0.37244177
000070 6d 91 11 be 3b 29 52 bf ec 4e bf 3c 0f 5d b7 3e
       -0.14215632 -0.8209416 0.023353063 0.35813186
000080 f2 e2 a3 be 91 0d f0 3e 38 36 3d bd 09 f4 93 3d
       -0.32009083 0.4688535 -0.046194285 0.072242804
000090 5d ac 9f 3d 47 8b c2 bf 0b 5c ec bc 00 9c a1 3d
       0.077965476 -1.5198754 -0.028852483 0.07891083
0000a0 1a 92 cc be 41 86 c7 3e 47 26 f1 3c 51 43 b9 bd
       -0.39955217 0.38969615 0.029437197 -0.09046043
0000b0 01 a7 83 3e 6e a6 06 c0 50 8e 8f bd cc 25 fe bc
       0.2571335 -2.103908 -0.07009566 -0.031023882
0000c0 ea 43 fc 3e cb ca e6 be 6d 5f 30 3f 33 12 08 bf
       0.49270564 -0.45076594 0.6889561 -0.5315277
0000d0 1c de 6d be 16 08 ca be 41 e2 21 3f 15 39 e8 be
       -0.23229259 -0.39459294 0.6323586 -0.4535605
0000e0 0a d3 a7 3e d6 d1 c5 be 4e 25 c6 bd 4e ab bd bc
       0.32778198 -0.38636655 -0.09675084 -0.023152974
0000f0 61 3a 3a be 60 5d 2c be 5d 19 3e be 46 33 6b 3d
       -0.18186332 -0.16832495 -0.18564363 0.057421945
000100 65 d1 96 3e 7a df c6 be 17 12 41 3d 6e c9 8a 3c
       0.2945663 -0.38842374 0.047136392 0.016941752
000110 40 71 1b be b8 fb e0 3d 86 fd 85 3d 35 3b a4 3d
       -0.1517992 0.109855115 0.065424964 0.08019105
000120 3c 76 1b 3f 57 72 48 bf e7 20 8d 3d cf 6e 9c bd
       0.60727286 -0.7829947 0.06891041 -0.076383226
000130 aa 20 24 3f 9b 93 01 bf 94 b7 22 3d cc cf a7 bd
       0.6411234 -0.50615853 0.039725855 -0.08193931
000140 5c f3 12 3f 68 ac 2a bf 58 0b c9 bd 5f e2 c2 3e
       0.57402587 -0.6666932 -0.09816617 0.38063332
000150 1c 4d 24 3f 77 07 08 bf ec 7f 2c be 38 2d a6 3e
       0.6418016 -0.5313639 -0.16845673 0.32456374
000160 7f 62 55 3f 23 3c 15 bf 49 64 01 3e 5c ed 69 3e
       0.8335342 -0.58294886 0.12635912 0.22844452
000170 15 73 2d 3f 28 ec 88 be 37 06 fa 3d f1 4c 90 3e
       0.67753726 -0.26742673 0.12208217 0.28183702
000180 58 a3 20 3f b7 82 09 3e 63 8f b9 bd 9f cb 4f bf
       0.6274924 0.1342877 -0.09060552 -0.81170076
000190 c7 82 ce 3e cc ac b0 be 7d 98 ad bd af ca 38 bf
       0.4033415 -0.34506834 -0.084763505 -0.7218427
0001a0 38 6b f0 3e 13 14 96 3e 75 72 82 be 44 11 e2 be
       0.469568 0.2931219 -0.2547795 -0.44153798
0001b0 bd e5 b9 3e 96 d6 f8 be b6 60 91 be 35 f2 ea be
       0.3630809 -0.48601216 -0.28394097 -0.45887914
0001c0 1f eb f9 3e e4 37 08 3e 8e e8 8a bd b9 af fd be
       0.48812196 0.1330257 -0.067826375 -0.49548128
0001d0 42 0d b6 3e aa 84 d2 be 08 94 7f bd 61 ac 11 bf
       0.3555699 -0.4111684 -0.062397033 -0.56903654
0001e0 ac 87 08 3e ee 83 05 3f 01 7d dc bd 6b c3 94 bf
       0.13333005 0.52154434 -0.1076603 -1.1622137
0001f0 3b 0d 06 bd 4a 7d 84 be 4f 35 01 be ee bc 95 bf
       -0.03272746 -0.25876838 -0.12617992 -1.1698282
000200 e9 40 00 3e 25 d1 03 3e d0 5e 12 be 92 2a 98 bf
       0.12524761 0.12872751 -0.1429398 -1.1887991
000210 0d 9b be bd cb b8 e6 bd 97 28 5c bd e6 b3 a1 bf
       -0.09306917 -0.11265715 -0.053749647 -1.2633026
000220 09 99 80 3e 4d bc a5 bc eb d1 8b bd 0f df 65 bf
       0.25116757 -0.02023139 -0.06827148 -0.89793485
000230 38 8e e7 bd f6 44 33 3d e7 c1 f5 bd 47 64 5b bf
       -0.11306423 0.04376694 -0.119998746 -0.85699886
000240 ca 3d 35 3f 66 fe 83 3e f5 93 45 3e bc 56 62 3e
       0.7079741 0.25780028 0.19294722 0.22103399
000250 84 65 37 3d 0f fe 51 3d 9c 97 1a 3e 0d 1c 54 3e
       0.044774547 0.05126768 0.15096897 0.20713826
000260 e1 d5 37 3f a7 e7 1b 3d 03 66 c6 3e 64 c9 47 be
       0.7181073 0.038062718 0.38749704 -0.19510418
000270 6f 4a e5 be 3c a2 c5 3e 2c 40 ad 3e a8 89 ef bd
       -0.4478335 0.38600338 0.33838022 -0.11696178
000280 c7 41 0b 3f f3 47 b6 bc 1e bb 6e 3d 92 41 66 be
       0.54397243 -0.022251105 0.058283918 -0.2248595
000290 76 aa 60 bf c8 0f 02 3f 20 b8 98 3b 64 bd 5f be
       -0.877601 0.5080533 0.0046606213 -0.2184959
0002a0 30 20 68 bd 5a 7f 27 3f f4 b3 0e be 1c 90 47 bf
       -0.05667132 0.654287 -0.13935834 -0.7795427
0002b0 d1 3f a6 3e 0a 0e 38 3d 1f 5f 31 be a8 e3 44 bf
       0.32470563 0.044935264 -0.17321442 -0.76909876
0002c0 a1 69 0a be 4a b2 d2 3e 07 4e 9e 3d 89 08 29 bf
       -0.13516857 0.4115165 0.07729726 -0.6602865
0002d0 03 6b ac 3e 83 3c eb 3d d2 80 6a 3c 85 44 10 bf
       0.33675393 0.11486151 0.01431294 -0.5635455
0002e0 75 55 d6 3c 0f 9c 30 3e 8a 87 4f 3d 79 71 36 bf
       0.026163796 0.17247032 0.05066637 -0.71266896
0002f0 17 26 04 3f a7 e3 f8 3e 9f df ba 3c ae 00 3e bf
       0.5162062 0.48611185 0.022811709 -0.7421979
000300 c1 01 ec be 6a 1e a9 3e c5 c4 2a 3e e5 85 f8 3d
       -0.46095088 0.33031017 0.16676624 0.12134913
000310 84 18 54 bf e2 19 a2 bc 2f c1 a2 3d 5c 24 45 3e
       -0.8284991 -0.019787733 0.07947003 0.19252151
000320 b8 e4 01 be df 53 da 3e 00 29 89 3e 3d a4 e5 be
       -0.12684906 0.42642114 0.26789093 -0.44851866
000330 ec 70 81 bf ba d4 0d bf d2 18 45 3e 51 23 05 bf
       -1.0112586 -0.5540272 0.1924775 -0.52007014
000340 61 95 37 be 74 6b ee 3e 8b 19 f0 bd 80 c9 a5 be
       -0.17928077 0.46566355 -0.11723622 -0.32380295
000350 3e c2 90 bf be 94 31 bf d7 16 15 be 8b 6e 83 be
       -1.1309278 -0.6936759 -0.14559494 -0.25670275
000360 67 15 c6 3e 9e 81 e5 bc 85 14 c4 bd 87 45 72 bd
       0.38688204 -0.028015908 -0.09574226 -0.059148338
000370 c5 ad 6a be cf a0 ff 3e 29 b7 84 bd c5 28 1a bb
       -0.2291785 0.49927375 -0.064802475 -0.0023522836
000380 92 43 cb 3e 20 3c 12 bd 80 0f ab bd 5d 85 17 3e
       0.3969999 -0.03570187 -0.08352566 0.14796968
000390 8b ff 39 bf 17 9e f7 3e cb dc f7 bd 4c 07 25 3e
       -0.7265555 0.483628 -0.1210266 0.16116065
0003a0 a3 2d 48 3e 4f 5f 00 be bc 18 9b be 51 56 0c 3e
       0.19548659 -0.12536357 -0.30292308 0.13704802
0003b0 72 c7 9e bf a0 bd 08 3f 80 be 8f be 94 63 3c 3e
       -1.2404616 0.53414345 -0.28075027 0.18397361
0003c0 07 5a 32 3f 41 e7 1c 3e 7f 0d b9 3c 7a 40 89 be
       0.6966862 0.15322591 0.022589443 -0.26807004
0003d0 cb e0 65 3e a1 3a eb 3d fa e0 37 3d af 40 74 be
       0.22449033 0.11485792 0.04489229 -0.238528
0003e0 23 0b 1f 3f ac 4f 4d 3d ec 32 c8 be 74 bd fd bd
       0.6212637 0.05012481 -0.3910135 -0.12389651
0003f0 92 7e 9d be c7 20 95 3e 66 37 c5 be 47 f4 c3 bd
       -0.30760628 0.2912657 -0.38518828 -0.095680766

fc1.bias f4 [300]
000000 f2 b3 b8 bd 0a da 92 3e 72 27 73 be cb ec 08 bf
       -0.09018697 0.28681976 -0.23745516 -0.5348632
000010 03 87 0c bf 12 26 fa be 22 c8 b9 be 05 13 89 3c
       -0.5489351 -0.4885717 -0.36285502 0.016732702
000020 6a 71 21 3d 52 13 fb be 88 da 62 bf cb 3a 6d 3e
       0.0394148 -0.49038178 -0.886147 0.23166959
000030 55 0b 72 3d ad bd 11 bf bc 58 2c bf dc 6e 0f be
       0.05909284 -0.5693005 -0.673229 -0.14007133
000040 38 f6 0b bf c0 16 7c be 1a c8 8c 3e 32 a8 d9 3e
       -0.54672575 -0.24618053 0.27496415 0.42511135
000050 bc d6 46 be f0 8e 2b bf 41 58 39 be 8b 74 06 bf
       -0.19417852 -0.6701498 -0.18100072 -0.5252158
000060 6f 64 f3 3d 9c fe 8a be 4b 03 16 3e b3 fc 47 be
       0.118843906 -0.27147377 0.14649694 -0.19529991
000070 97 98 81 3e 23 c1 e2 bd 4e 1e 2d 3e 3b 9d 5a be
       0.2531173 -0.11071994 0.16906092 -0.21349041
000080 87 92 5e be f3 3e 88 be dc 06 99 3e 65 66 8c be
       -0.21735583 -0.26610526 0.29888046 -0.2742187
000090 eb 75 47 be b1 56 18 bf ad f1 8a be 94 f2 00 3f
       -0.19478576 -0.5950728 -0.2713751 0.50370145
0000a0 36 ce 39 be 50 96 2b 3d df f3 b3 bd 07 75 62 3e
       -0.1814507 0.041891396 -0.08786749 0.22114955
0000b0 e9 09 95 3e 8d a1 99 bd c4 66 a9 be 01 dd 74 be
       0.29109123 -0.075015165 -0.33086216 -0.23912431
0000c0 a4 9d 87 be 91 b6 60 be 66 d8 16 bf a9 18 fa bd
       -0.26487458 -0.21944644 -0.5892395 -0.12211735
0000d0 3f 95 29 3e 9c 16 ca be ee aa c7 3c ea 89 6b be
       0.16560839 -0.39470375 0.024373498 -0.23001829
0000e0 7d 4f e9 be ab 27 db 3d 04 0e 37 3d 1c 92 8d be
       -0.45568457 0.107009254 0.0446911 -0.27650535
0000f0 b8 a8 f7 be ea 80 d3 bd 23 41 86 3e 84 35 6d 3d
       -0.4837091 -0.10327323 0.2622157 0.057912365
000100 aa db 13 bf 2a 9d 31 3d 8e fe f3 3e 91 04 53 3e
       -0.57757056 0.043362774 0.47655147 0.2060721
000110 d1 86 19 3d 5a 74 09 bf 8d 47 9c be 28 f4 da be
       0.037482087 -0.53693163 -0.3052334 -0.427644
000120 b2 49 90 be 51 2b 36 bf 3f 42 d9 3d db fb e3 bd
       -0.28181225 -0.71159846 0.106083386 -0.11132022
000130 ef 47 a4 be 0c 53 0d bf b1 64 19 bf d3 a3 19 3e
       -0.3208613 -0.55204844 -0.5991927 0.150039
000140 76 25 05 bf a2 c1 dc be f9 74 d7 be 5e 99 03 3e
       -0.52010286 -0.4311648 -0.4208143 0.12851474
000150 89 34 06 3d a3 56 e4 be 34 1e 25 be 6f 2a b3 be
       0.032764945 -0.4459735 -0.16124803 -0.34993312
000160 35 0c 48 bd c2 d8 c1 be ec 72 61 be 7f 8a 11 3e
       -0.048839767 -0.37860686 -0.22016495 0.14212988
000170 06 ac d1 be 22 7d 99 be 99 53 0e bf 76 09 0d 3f
       -0.40951556 -0.2997828 -0.5559631 0.5509256
000180 08 fd 83 be b0 37 95 3d 2c 9f 6b 3e 79 78 88 be
       -0.25778985 0.07286012 0.23009938 -0.26654413
000190 e5 66 3d be 45 d6 43 be d0 59 98 3e db 61 f9 be
       -0.18496282 -0.19124706 0.29756021 -0.4870747
0001a0 f6 d0 fd be d7 f0 9e 3e d2 ab 60 be ad 98 89 be
       -0.49573487 0.3104312 -0.21940544 -0.26874295
0001b0 66 66 5a be a8 df 81 bf fc 88 74 3e 5d d1 03 3b
       -0.21328124 -1.014638 0.2388038 0.0020113804
0001c0 be 33 21 bd 33 dc 47 bf 1c 8a 19 be cb 0e 65 3e
       -0.039355986 -0.7807037 -0.14994091 0.22368924
0001d0 d9 39 a7 be 10 46 41 bf e0 1a ba bd 98 ea 04 bf
       -0.32661322 -0.7549753 -0.09087157 -0.5192046
0001e0 37 cb 11 bf 5b 37 c9 be db b5 dc be a4 11 bd 3e
       -0.56950706 -0.39300045 -0.43107495 0.3692752
0001f0 5a 9a 1a bf 1f b1 25 bf b1 58 5e be 5a 11 6a 3c
       -0.6039177 -0.6472339 -0.2171352 0.0142863635
000200 b1 16 39 be 2e 34 74 be d5 d0 e5 be ce a6 b7 be
       -0.18075062 -0.2384803 -0.4488589 -0.3586945
000210 2d e7 dc be 56 b0 51 3d 3d 99 0b 3e 9d 2d aa 3e
       -0.43145123 0.051193558 0.13632675 0.33237925
000220 b8 ef 09 be 55 ea 7f be 3d b9 b8 bd 95 3b 51 be
       -0.13470352 -0.24991734 -0.090197064 -0.20432885
000230 0f bf c3 be 6c 4e d7 be 09 8a 99 be 9b 43 25 3e
       -0.38231704 -0.4205202 -0.29988125 0.1613907
000240 23 25 c9 3e 10 ea ef be 71 53 20 bf 7e 7f fc bd
       0.39286146 -0.46858263 -0.6262732 -0.12329005
000250 6a cc e8 bd 59 ee 60 bd c9 c8 76 3e 69 6b 53 bf
       -0.11367114 -0.054914806 0.24100031 -0.8258577
000260 a7 3a 48 be 7b 54 09 bf dc 60 75 3e 4e 30 10 be
       -0.19553624 -0.5364453 0.2396273 -0.14080927
000270 58 97 41 be 8d 36 5e bf 2e 3d b3 be d5 8c 17 bf
       -0.1890539 -0.8680199 -0.35007614 -0.5919927
000280 8f 67 e2 be 38 89 6c be c4 d6 3e be 82 5f 7a 3d
       -0.44219634 -0.2309922 -0.18636614 0.06112624
000290 a8 d9 e8 bd 93 20 1f bd 59 f1 f1 be 72 fe d8 3e
       -0.1136964 -0.038849425 -0.47254446 0.42381626
0002a0 61 93 b2 be 01 41 0a be ca 7e 50 be 31 6c 89 bd
       -0.34878066 -0.1350136 -0.20360866 -0.06710089
0002b0 09 94 2a bd e8 d0 b5 be 31 96 98 be a1 b4 4c bd
       -0.041645084 -0.35510945 -0.29802087 -0.04997695
0002c0 72 7d fb 3d db de ac 3d a0 54 f9 be 6d 65 0e bf
       0.12279786 0.08440944 -0.48697376 -0.55623513
0002d0 31 13 af bd 35 7a dc be de 45 0b 3e 17 f5 de be
       -0.08548582 -0.43061987 0.13600871 -0.43546364
0002e0 82 1d 9a be 1e 3f fe bd 99 1f 9d ba d8 ff 0f be
       -0.30100638 -0.124143824 -0.0011987566 -0.1406244
0002f0 e2 15 c3 3e e7 35 fe bd 96 53 9b be 41 87 85 be
       0.38102633 -0.12412625 -0.30337209 -0.26079753
000300 96 85 13 be fc ec 46 bd 83 31 45 3e 54 f2 46 3e
       -0.14406428 -0.04856585 0.19257168 0.19428378
000310 32 28 95 3e b8 36 55 be 1b aa e6 3d 37 f6 64 3e
       0.2913223 -0.20821655 0.11262914 0.22359549
000320 35 5c 38 3e f2 c2 3b bd 90 22 47 be ef 86 7a be
       0.18003924 -0.04584021 -0.19446778 -0.24465536
000330 24 f0 93 3d 65 e2 cb bd d4 e5 2c bf ac 0e e5 bc
       0.072235376 -0.09955291 -0.6753819 -0.027961098
000340 76 33 94 bd c2 5e 5c 3d 90 fe f1 3e fb eb 3d bf
       -0.07236378 0.053801306 0.47264528 -0.741882
000350 64 91 fb be 45 83 24 bf 34 fb 16 be e2 e7 0f bf
       -0.49134362 -0.642628 -0.14744264 -0.562132
000360 25 4a 0a bd ae 5c 14 3e bd 62 b6 be 37 d1 38 bf
       -0.033762116 0.1448848 -0.35622206 -0.72194237
000370 ca fe a6 3d b3 a3 03 3e 6c 92 02 bf 38 53 cd be
       0.08154066 0.12855415 -0.5100467 -0.40102553
000380 4e 90 58 bf 7e c9 8a bd a1 58 9f be 2f c2 ca be
       -0.8459519 -0.06776713 -0.31122306 -0.39601275
000390 7c 09 3d be eb 4c 04 bf ad 07 96 be 27 6f 49 be
       -0.18460649 -0.5167987 -0.2930273 -0.19671308
0003a0 14 37 00 3e 0c 01 33 bf 6c d7 c9 be ef a5 58 be
       0.1252101 -0.6992347 -0.39422166 -0.21157049
0003b0 f9 e2 d7 be e0 60 85 be 75 b9 c1 3e 2f ef e0 be
       -0.42165354 -0.26050472 0.37836805 -0.43932483
0003c0 70 4d a3 3e 94 19 40 3e a1 43 59 bf 4a de 8d be
       0.31895018 0.18759757 -0.8486882 -0.27708656
0003d0 8d db bb 3e be bf 4c bf 0c 23 d0 3c b0 06 da be
       0.3669094 -0.79980075 0.025407337 -0.42583227
0003e0 c9 63 e0 be 19 74 c6 be 4b 2c 36 be 5f ca 32 3d
       -0.4382613 -0.3876045 -0.17790334 0.043650027
0003f0 37 74 4b bf 4c e4 eb be 93 32 41 3d fb 3b 0e bf
       -0.79474205 -0.46072614 0.047167372 -0.5556027

bn1.weight f4 [300]
000000 40 24 56 3e 68 0e e3 3e 9f 8c 16 3d 41 5d 17 3f
       0.20912266 0.4434693 0.0367552 0.5912667
000010 7e c5 45 3c 39 f6 52 3f 80 1d 13 be 59 fe a5 3e
       0.012071012 0.82406956 -0.14366722 0.32420614
000020 4c 35 bc 3d 91 c6 52 3f 88 58 94 3f 0b 09 03 3e
       0.09189853 0.8233424 1.1589518 0.12796418
000030 f6 d9 62 3e 96 3c b2 3c 5c 2a 17 3c 5b 8a 81 3d
       0.22153458 0.021757405 0.009226408 0.06325217
000040 1d 05 10 3f 58 59 b1 3c 1b 9e 0b 3f f9 44 9c be
       0.562578 0.021649048 0.54538125 -0.30521372
000050 1d 91 29 3f 0f ca 3b 3f 25 4b 96 3e 3f c4 91 3e
       0.6623705 0.7335519 0.29354206 0.28470036
000060 f9 6b a4 3d 11 8c 0f 3f 4f df 75 3f 18 45 a4 3e
       0.08028407 0.560731 0.96043867 0.32083964
000070 0e f3 a2 3f 84 53 49 3f aa bf 80 bd 0a 44 22 3e
       1.2730424 0.7864306 -0.06286557 0.15846267
000080 72 e8 22 3f cd 48 40 3e 2f fd 35 3f 89 7f d4 3b
       0.63635933 0.18777771 0.7108945 0.00648493
000090 4c 88 06 3f 85 ef 4b bd f5 d4 28 3e 93 b0 a9 3e
       0.5255172 -0.04978897 0.16487487 0.33142528
0000a0 a1 a9 10 3f 2a b7 c4 be d9 59 5a 3f 41 ee e6 3d
       0.56508833 -0.38420993 0.85293347 0.11275912
0000b0 f5 cb 9b 3f c7 0c 83 3f 49 b5 11 3e e0 4b 81 3e
       1.2171618 1.0238274 0.14229311 0.252532
0000c0 06 e1 01 3f e9 42 9b 3d d3 5d db 3e e9 d8 24 be
       0.50733984 0.075811215 0.4284502 -0.1609837
0000d0 64 96 fa 3e 02 57 11 3f 1b 3d df 3f ed dc 26 3e
       0.48942864 0.5677339 1.7440523 0.16295214
0000e0 d0 75 86 3f b2 1d 97 3f 3f 5f 8d bd b8 47 01 3e
       1.0504704 1.1805937 -0.069029324 0.12625015
0000f0 4f 8f 0e be af ce c0 3f 81 eb 4f bd e2 41 3a 3f
       -0.13921855 1.5063075 -0.050761703 0.7275678
000100 26 d8 56 3f 19 4a 98 3c f9 3b 0e 3e f8 a2 14 3e
       0.83923566 0.01859002 0.13890065 0.14515293
000110 93 2f 79 3e 12 dd cd 3e c7 2b 06 3f 37 49 ad 3e
       0.24334554 0.40207726 0.5241055 0.3384492
000120 d5 dc 3d 3f 2b 38 c0 3f 21 ac 89 3f aa ac 3e 3f
       0.7416509 1.5017141 1.0755655 0.74482214
000130 91 cd 82 3e b8 96 eb 3d 61 31 d0 bd dd 0a d2 bd
       0.2554746 0.11503357 -0.10165668 -0.10255978
000140 7e 70 08 3f 2d 59 1a 3f 36 0b 42 3e 62 d0 ee 3e
       0.5329665 0.6029232 0.18949589 0.46643358
000150 10 d3 a9 3f 1f f8 95 3e eb a7 2f 3e 8c 52 a5 3e
       1.3267536 0.29290864 0.171539 0.3228954
000160 e1 78 0e 3f 4c 2a 67 bd 63 5d 4a 3f 62 5e 9e 3e
       0.55653197 -0.05643682 0.79048747 0.30931383
000170 86 af 7c 3d f9 2f fc 3d 8b c3 8c 3e da 94 58 bd
       0.06169083 0.123138376 0.27492937 -0.05287633
000180 19 a2 bb bd 6f 5a 69 bd 9d 2d ae 3e 82 c6 fa 3e
       -0.09161777 -0.05697101 0.34019175 0.48979574
000190 e1 1f d7 3f 6b b8 8a 3e 5b df 57 3f 86 ef e0 3e
       1.6806604 0.27093825 0.8432519 0.43932742
0001a0 6a f4 34 3d 02 4d 63 3e 7c 70 21 3f 5b dc 5d 3e
       0.044178404 0.22197345 0.6306226 0.2166609
0001b0 1a e9 50 3f ba 6b d8 3e 1c 8e 08 3d a4 de 3d 3f
       0.81605685 0.4226969 0.03333865 0.7416785
0001c0 7a 2e 3c 3e c2 88 0d 3f d8 3b 42 3a 75 4c 35 3e
       0.18377104 0.552868 0.000740943 0.17704947
0001d0 b3 7f 94 bd ce 90 1d 3f 88 5c 8c 3f 0a 2f b0 3c
       -0.07250919 0.6154908 1.0965738 0.021506805
0001e0 a2 d1 b3 3c 5e 7a 81 bd cb e0 1a 3e 40 0b 24 be
       0.021950547 -0.06322168 0.15124814 -0.16019917
0001f0 d5 8b 6a 3e dd f5 2f bd 23 ee 92 3f 33 2c dd bd
       0.22904904 -0.042959083 1.1478924 -0.10799446
000200 58 ab 50 3e 3c 9f 3b 3e 04 b7 a2 3e b2 48 a8 bc
       0.20377862 0.18322462 0.31780255 -0.020542476
000210 b3 07 89 3f c9 ef 25 3f 1e 32 11 3e 56 f1 6a bd
       1.0705475 0.6481901 0.14179274 -0.057359062
000220 9f dc e8 3e 7c 15 04 3f e8 b2 25 3c 2c 88 40 3e
       0.4548082 0.5159528 0.010113455 0.18801945
000230 2a 5f fa 3d 8b 94 c8 3e 54 da 0f bd 4f 94 b4 3f
       0.12225182 0.3917583 -0.035120323 1.410776
000240 ad 98 76 3e d4 e8 9f 3f 34 e7 b0 3e ca f6 85 be
       0.24081679 1.2492929 0.34551394 -0.26164848
000250 f6 c3 19 be e1 1e 3a 3f 4e 83 64 3c 56 7d b1 3e
       -0.1501616 0.7270337 0.013947321 0.34665936
000260 4e c7 26 3b df 48 8e 3e be 25 22 3e 89 9b c8 3e
       0.0025448385 0.2778997 0.1583471 0.39181164
000270 05 8f df 3e 3a a1 e1 3d 7d 80 61 3f e4 ed 00 3e
       0.43663803 0.1101708 0.8808668 0.12590748
000280 c0 df 63 3f 11 54 d2 3d 99 71 7a bc 05 38 c2 3f
       0.8901329 0.10269941 -0.015285873 1.5173346
000290 ac 81 ce bb 34 12 a8 be 24 9e e4 be aa e3 95 3d
       -0.006302079 -0.32826388 -0.44651902 0.07318814
0002a0 d4 78 da 3c e4 b0 10 3f 51 12 1c 3f c0 a7 b9 3e
       0.026668943 0.56519914 0.6096545 0.36260796
0002b0 09 be 15 3d 59 aa 5c 3f 02 32 17 3f 66 c1 be 3f
       0.036558185 0.8619743 0.5906068 1.490277
0002c0 a2 da c7 3d ba 33 aa bd c8 48 88 3f c8 86 91 3e
       0.09758498 -0.08310647 1.0647211 0.28423142
0002d0 e2 76 81 3e 50 e7 4f 3f d6 18 08 3b 34 dc 86 3f
       0.25286013 0.8121233 0.0020766756 1.0535951
0002e0 2b 4e b5 bb 21 63 76 bd 80 66 ff 3e cf 62 1f 3f
       -0.005533 -0.06015313 0.4988289 0.62260145
0002f0 20 1a 15 be f6 e7 02 3e dc a8 0f 3e d5 32 54 3f
       -0.14560747 0.12783799 0.14029258 0.82890064
000300 d2 33 da 3e ea d8 17 3f bd 49 48 bc 01 41 51 3f
       0.4261766 0.5931536 -0.012224612 0.81739813
000310 6f 7c bc bb 46 29 a4 3d 37 ca bb 3d 31 07 6a 3e
       -0.0057521383 0.08015685 0.09169429 0.22854306
000320 56 4a 2a be 4a bb 16 3c cc 31 ff bc d9 a3 2a be
       -0.1662992 0.009199927 -0.031151675 -0.16664065
000330 dc b1 99 3e 94 96 29 3f e6 f8 20 3f cc 02 51 3f
       0.30018508 0.6624539 0.6287979 0.8164489
000340 e9 a4 2f 3e a2 32 20 3f 8f 33 53 bd 49 69 8b 3f
       0.17152752 0.6257726 -0.051562842 1.0891505
000350 da ff 37 3f 9d 07 7b 3e 69 5f ca 3b 0a 4f 1d be
       0.71874774 0.24514623 0.0061759246 -0.15362182
000360 eb e0 13 3c e1 eb 93 3d 56 a5 91 be ad e6 2d 3f
       0.009025793 0.07222725 -0.28446454 0.6793011
000370 15 50 cd 3c b5 4a 9a 3e b7 52 e6 3e 5a a9 cb bc
       0.0250626 0.30135122 0.4498498 -0.024861027
000380 c0 dc c0 3e 8a 9b b3 3f bd 16 47 3f da 29 d5 3e
       0.3766842 1.4031842 0.7776907 0.41633493
000390 52 c2 8f 3d ba 9a 39 3f 4b 26 b0 3e f5 8d 26 3f
       0.070194855 0.7250172 0.34404215 0.6506036
0003a0 fa 7b 04 bc 15 32 7c 3e 2e a5 ce 3e d0 f0 09 3e
       -0.008086199 0.2462848 0.40360397 0.13470769
0003b0 98 f7 9b bd 67 8f ac 3c e6 84 a7 3e 31 33 a5 3e
       -0.07615584 0.021064473 0.3271858 0.32265618
0003c0 0a 75 2a be 8c 69 c7 bc 79 fc 9d 3f 3c 72 3d bc
       -0.1664621 -0.02434232 1.2342674 -0.01156288
0003d0 be 78 2b 3f 59 9f 91 3e db 65 bd 3e 0f e5 26 3f
       0.6698111 0.28441885 0.36991772 0.65193266
0003e0 23 0a 6b 3e 33 83 ad 3d cc d8 06 3f 18 eb 9e 3e
       0.22953086 0.0847229 0.52674556 0.31038737
0003f0 51 a1 88 3e 80 c3 6f 3f 0b 62 85 3f 40 12 f0 3c
       0.26685575 0.93657684 1.0420545 0.029305577

bn1.bias f4 [300]
000000 a1 e6 98 3c 4a 94 71 be b6 fd ab bc c5 ac d1 3e
       0.01866466 -0.23591724 -0.020995002 0.40952125
000010 74 8e 05 be 77 5c 7e bd 17 f0 59 be ba ba 3c bc
       -0.13042623 -0.0620999 -0.21282993 -0.011519128
000020 9e ed da bd ba 5a a1 be 50 09 91 be ca 72 75 3e
       -0.10689853 -0.3151453 -0.28327417 0.2396957
000030 f2 82 18 3d 20 3f 1b 3e fd dc bc 3c 33 f5 c0 bd
       0.037234254 0.15160799 0.023054594 -0.09421768
000040 08 d3 73 bc 8e 11 1c bd 86 54 c0 3e de 03 1a be
       -0.014881857 -0.03810268 0.37564486 -0.15040538
000050 13 5a 66 bc a7 c9 90 3d 16 52 30 bc b6 96 4d 3d
       -0.014059561 0.07069712 -0.010761758 0.050192557
000060 9a 9f 25 bd 2d 46 1c 3d a9 88 94 3c f4 c6 4d be
       -0.04043541 0.038152862 0.01813157 -0.20095426
000070 82 03 c8 3d c4 86 0c 3f cd c7 45 3e ea 16 df bd
       0.09766294 0.54893136 0.19314499 -0.108930424
000080 88 6a 8b 3e 15 90 79 bd 77 97 32 3e 74 ee 03 bc
       0.27229714 -0.060928423 0.17440592 -0.008052457
000090 a7 b5 86 be d4 93 0a 3d ec 22 c8 3d 48 72 20 bd
       -0.26310465 0.033832386 0.09772286 -0.039171487
0000a0 7a 04 25 3e f5 e3 5c 3e d4 76 a2 bd 7a 24 1d bd
       0.16114989 0.21571334 -0.07932821 -0.038364865
0000b0 38 4b c9 3d 0c b0 08 be aa 63 e6 bd 96 c7 8f 3d
       0.098288 -0.13348407 -0.11249478 0.0702049
0000c0 96 b7 93 3e f4 a1 b6 bd cb 13 b3 be 2a 42 43 be
       0.28851002 -0.08917609 -0.34976038 -0.19068208
0000d0 2e 9c b5 3e 9b 82 36 be 7f c3 a2 3d 1f b0 62 be
       0.35470718 -0.1782326 0.07947444 -0.22137497
0000e0 52 19 0c 3d 55 5f f9 bd f0 51 59 be ed 86 3d 3c
       0.034203835 -0.12176386 -0.21222663 0.011567813
0000f0 73 38 3b 3e fa 87 76 3d f6 ea b0 3d 21 45 81 be
       0.18283252 0.06018827 0.08638565 -0.25248054
000100 44 b7 cf 3e 85 cd ff 3d 2a 3d d5 3d 5f 78 f4 3d
       0.40569508 0.124903716 0.10412057 0.119370215
000110 18 16 72 3d 3f 17 a3 bb 25 ac 08 3e 3a 18 35 3d
       0.0591031 -0.0049771364 0.13346918 0.044212557
000120 86 88 39 be 34 32 4f be 8b 5a 0a 3e 09 ae 4d 3d
       -0.18118486 -0.20233995 0.13511102 0.0502148
000130 32 28 e5 bd ff 3e a5 bd b0 53 38 be be 14 13 3e
       -0.11189307 -0.08068656 -0.18000674 0.14363381
000140 6a 94 9f bd 90 df 0c 3f 06 21 7f 3c 8c fb bd 3d
       -0.077919796 0.5502863 0.015571838 0.092764944
000150 94 0b ef 3d 52 c1 8b 3d 27 83 2b bd cb 21 45 be
       0.1167213 0.06823982 -0.041873123 -0.19251172
000160 65 6e ed bd 77 fd ec bd d3 40 09 be fc 9c 5a bd
       -0.11593322 -0.11571782 -0.13403635 -0.05337237
000170 8e 99 51 3d 38 b4 2f be d7 c9 11 3e 10 52 a0 3d
       0.05117183 -0.17158592 0.14237152 0.07828152
000180 b1 e9 d8 3d 86 9a 70 bc d5 7c 86 3d 0e 53 d5 bc
       0.10591448 -0.014685279 0.065667786 -0.02604058
000190 70 71 d7 bd cd e5 86 be 89 0e 42 3e 61 4a 8b be
       -0.10519683 -0.263472 0.18950857 -0.27205184
0001a0 79 13 62 3d 20 e1 c7 3d b7 19 0b 3f 6f 70 1c be
       0.05519435 0.09759736 0.5433611 -0.15277265
0001b0 81 58 7f bd dd a6 39 3e c1 66 46 b9 cf 3a 1b be
       -0.062340263 0.1813006 -0.0001892103 -0.15159152
0001c0 3f 9b 4a be e0 b6 48 be 8d ed 2e 3c b4 ed dd 3d
       -0.19785784 -0.19601011 0.010676754 0.10836354
0001d0 63 13 9a be 82 e7 8d bd 14 3c 6d be f5 3e 84 bb
       -0.30092916 -0.06928922 -0.23167449 -0.0040358254
0001e0 77 3a 6d bd 8e db eb bd f8 22 62 bb 0a 30 2e 3e
       -0.057917085 -0.11516486 -0.0034505706 0.17010513
0001f0 ac 2b 31 3e 4a 74 3a be fd a0 3d bd 29 f5 64 be
       0.17301816 -0.18208423 -0.04629611 -0.22359146
000200 3d f7 64 3e 56 8b 47 bd 27 bc 7d bc b1 50 a7 3d
       0.22359939 -0.048716865 -0.015486754 0.081696875
000210 22 32 2b be 42 52 aa bd 35 1d 84 3e 07 1f 4a 3e
       -0.16718343 -0.08316471 0.25803533 0.19738398
000220 27 28 81 3e 12 3a 99 3c 87 97 6f 3c f1 27 a1 be
       0.25225946 0.018704448 0.014623529 -0.31475785
000230 de de b8 bd 1c ef ce 3c 62 e3 27 bd cc 9f c2 3c
       -0.090268835 0.0252605 -0.040988334 0.023757838
000240 1b 1d 74 3e fc c9 a1 bd 64 57 84 bd 41 f0 34 be
       0.23839228 -0.078998536 -0.06461981 -0.17669775
000250 83 32 03 3e 16 68 b1 3d 9b 64 a5 3d 0b 3f 7b be
       0.12812237 0.08662431 0.080758296 -0.24535768
000260 43 fe bc 3d 46 b8 0e be 50 f7 ff 3d 54 a4 a3 bd
       0.09228184 -0.13937482 0.12498343 -0.079903275
000270 25 c5 73 3e 4a 7d 0c be 99 12 c7 bd fb 62 2b be
       0.23805673 -0.13719669 -0.09720344 -0.16736977
000280 f3 81 bc be d5 3c d8 3d 87 33 98 bd 45 d6 06 3e
       -0.36817893 0.10558478 -0.07431703 0.13167675
000290 92 4b 9c 3c 52 73 37 be c4 33 24 3d 65 51 29 be
       0.019079003 -0.17915085 0.04008843 -0.16534956
0002a0 da 99 2b bd c3 e0 0a 3d 30 ec 4e 3e 35 a6 97 3e
       -0.04189477 0.033905756 0.20207286 0.29618993
0002b0 33 d7 c9 3d 5a cf 4f 3d 20 13 f7 3e 9b fa f6 3d
       0.09855499 0.050734855 0.4825678 0.12059518
0002c0 40 93 86 bd 50 ea 2a 3e ab fe e1 be 03 c6 66 bd
       -0.065710545 0.16690946 -0.4413961 -0.056341182
0002d0 f9 67 0b bd e3 12 b6 3e 5e 94 75 3d 2b 70 8e bd
       -0.034034703 0.35561284 0.059955947 -0.06954988
0002e0 2f 68 38 3e 29 31 55 3e 65 f3 7c 3b 03 f9 91 3e
       0.18008493 0.20819534 0.0038597223 0.28510293
0002f0 66 82 c0 3d f3 e3 65 be 52 ad b2 bc c1 03 1d be
       0.093998715 -0.22450237 -0.021811161 -0.15333463
000300 3e 88 9a 3e 10 bf 8b 3e 1d ec bf bd 93 fd 68 3e
       0.3018207 0.27294207 -0.09371207 0.22752981
000310 b1 76 ac bc 6c 7a 48 be d7 f6 75 be fa 34 38 3e
       -0.02105269 -0.1957795 -0.24019943 0.17988959
000320 d2 5d de 3d 6b 6b 95 bc 01 ea 81 3d 94 a8 05 3e
       0.108577386 -0.018239697 0.06343461 0.13052589
000330 a6 5f 66 3d 0c 09 0f 3f a5 dc 92 be 8e c2 27 3e
       0.05624356 0.5587318 -0.28683963 0.1638281
000340 a5 c9 47 be 80 a0 44 3e 2a 00 3a be 71 42 52 bd
       -0.19510515 0.19201851 -0.18164125 -0.051332895
000350 c0 cd 18 ba 57 e8 2d be 18 82 50 bd 28 12 41 3e
       -0.0005828999 -0.16983162 -0.050905317 0.18854582
000360 c4 25 1a 3c 97 c1 0e be d5 2a db bc 08 35 d9 bd
       0.009408418 -0.13941036 -0.026753822 -0.10605818
000370 6d 26 85 bd 4d 7a 88 3e 66 c3 25 bb a2 18 c7 3d
       -0.0650147 0.26655808 -0.0025293468 0.09721495
000380 19 1b 87 be 14 e5 b2 3d 4d 3a 0a bc 44 c3 49 3c
       -0.2638786 0.087350994 -0.008436752 0.012314621
000390 14 a9 04 be 9a 5b 00 3f c6 2c 19 be 2a 29 bb bd
       -0.12955123 0.5013977 -0.14958486 -0.09138711
0003a0 10 4a 16 be 19 66 59 3d 39 e8 9b bd 15 b3 6e 3b
       -0.1467669 0.053075884 -0.07612652 0.003642266
0003b0 01 fb 5e 3d 97 af 4d bd d3 5d 67 3d 0b 00 74 be
       0.054438595 -0.050216284 0.056485962 -0.23828141
0003c0 39 f2 36 be 92 06 84 3b 63 97 d9 3d f5 d0 0e be
       -0.17865838 0.0040291036 0.10624578 -0.13946898
0003d0 0d a4 48 3d fd 07 99 3d 91 9a 96 3d 6c 48 ce 3b
       0.048984576 0.07472227 0.073537 0.0062952545
0003e0 c9 6c 6e 3d f9 11 15 be 25 9d 11 3f 7d 61 80 3e
       0.058209214 -0.14557637 0.5688041 0.25074378
0003f0 e9 bf 64 bd be d4 dc 3e 60 43 a2 3e 74 c7 3a 3d
       -0.055847082 0.4313106 0.31692028 0.04560037

bn1.running_mean f4 [300]
000000 f6 c7 fe 40 de 52 50 3f 05 f8 8f 41 7b 82 4d 40
       7.9619093 0.81376445 17.996103 3.211089
000010 89 09 b4 3e 93 32 52 40 d6 d2 66 41 f7 06 b2 40
       0.35163525 3.2843368 14.426474 5.56335
000020 1e c8 10 41 62 ed d4 40 54 e0 24 40 94 bd 37 41
       9.048857 6.6539774 2.576192 11.483784
000030 fc f8 b9 40 23 eb de 3a 50 23 9b 40 70 12 b6 40
       5.8116436 0.0017007332 4.8480606 5.6897507
000040 f0 66 40 40 27 e0 8e 40 1b a7 5b 41 b6 ed 33 41
       3.0062828 4.4648623 13.728297 11.245535
000050 66 54 66 40 cc cf b6 3c e3 a8 bb 3f 63 ba 80 3f
       3.5989013 0.022315882 1.4660915 1.0056881
000060 82 de 93 41 0f 9d 8a 40 8b 48 87 3f 4e 08 bc 40
       18.483646 4.331672 1.0569013 5.8760138
000070 8c 12 f3 3e 47 16 75 41 0b ec 6b 40 62 73 37 40
       0.47475088 15.317939 3.686282 2.8664174
000080 f2 25 3c 3f c0 d5 23 40 c8 68 3b 41 a9 48 53 40
       0.734954 2.5599213 11.713081 3.3013098
000090 be 0f 94 40 87 62 07 3f bc 5c 02 3f e4 83 c9 41
       4.6269217 0.52884716 0.5092275 25.1894
0000a0 8b b2 10 40 94 5b 2f 41 f0 2a 0a 41 9e 8e d3 41
       2.2608974 10.959858 8.635483 26.444637
0000b0 89 f7 55 3f e9 43 b0 3e eb ec 5d 40 85 68 bc 40
       0.83580834 0.3442681 3.4675853 5.8877587
0000c0 57 0d 33 40 48 9e ae 3f c5 d2 ca 3f 87 08 53 41
       2.7976892 1.3642054 1.5845572 13.189582
0000d0 8b 38 7c 41 1c f8 21 40 d4 f4 03 3f d8 8a 0e 40
       15.763804 2.5307684 0.51545453 2.2272243
0000e0 2c 33 64 40 54 3e 62 40 bc 5f 15 41 af ea 9e 41
       3.5656233 3.5350542 9.335873 19.864592
0000f0 49 1c 0f 41 09 47 b0 3e 23 44 8d 41 eb b5 51 40
       8.944406 0.34429196 17.65827 3.2767284
000100 eb 42 e0 3f d7 ae 87 40 e9 28 7b 41 c4 00 cc 41
       1.7520422 4.2400928 15.697488 25.500374
000110 68 c0 e0 3f 6d 6d 87 2a 29 f8 c3 3f 35 29 09 41
       1.7558718 2.4056747e-13 1.5310107 8.57256
000120 9f 4c 0c 41 28 74 72 40 b4 0e ac 40 d2 6e e0 40
       8.768706 3.7883396 5.376795 7.013528
000130 73 df 24 40 cb 67 eb 3f 48 69 99 3d b4 aa e3 40
       2.5761383 1.839105 0.07490784 7.114588
000140 fe b2 4b 40 f6 a2 89 41 20 c6 3e 3d 6a 4f 07 41
       3.1827998 17.20457 0.046575665 8.456888
000150 31 93 fc 3e 5a 23 cc 3f a8 64 41 40 1c cf fa 3f
       0.49331048 1.5948288 3.0217686 1.9594455
000160 9f ba eb 40 61 2b 9c 40 dd 2a 8e 40 10 50 4d 41
       7.366531 4.8802953 4.4427323 12.8320465
000170 b6 d7 5c 40 02 96 2c 41 06 6e 3f 40 74 f6 a6 41
       3.450666 10.786623 2.9910903 20.870338
000180 55 bf 3a 40 b2 42 19 41 f8 f9 39 41 93 bc 51 41
       2.917928 9.578783 11.623528 13.108539
000190 ec c5 ea 40 9e 88 49 41 3e b8 88 41 cf 86 f8 3e
       7.3366604 12.595854 17.089962 0.4854035
0001a0 62 f1 56 3e db e7 44 41 9d 9a 92 41 6e 28 d3 3f
       0.20990518 12.306605 18.325495 1.6496713
0001b0 2c e7 f9 40 0b 2e 47 3d c3 de 8e 41 04 8a 2e 40
       7.809469 0.048627894 17.85877 2.7271738
0001c0 ba ad 47 41 e3 54 7b 41 92 86 b3 41 38 2e 40 41
       12.479914 15.708224 22.440708 12.011284
0001d0 0d d3 b7 41 9b 07 11 40 34 26 06 41 32 24 35 40
       22.978052 2.2660892 8.384327 2.8303342
0001e0 73 63 e1 3f 48 0a 8f 41 47 75 89 3f dc 50 46 41
       1.7608474 17.88002 1.0738915 12.394741
0001f0 c5 37 42 3f 4d 41 2d 3e d6 18 0a 3f 39 04 47 41
       0.7586635 0.16919442 0.53944147 12.438531
000200 7e 45 87 41 63 22 3d 41 a3 93 d9 3b fc 46 f6 3e
       16.908932 11.820895 0.006639914 0.48101032
000210 a7 93 d1 40 47 05 38 40 36 4d 59 41 e3 8d 55 41
       6.549274 2.875322 13.58135 13.34714
000220 93 45 c4 41 0e d0 5a 3f 11 5a 25 40 fa 31 21 40
       24.533972 0.85473716 2.5836222 2.5186753
000230 c9 d9 dd 3f a8 86 88 40 7f 63 0a 41 5b f6 7b 3f
       1.7332088 4.2664375 8.649291 0.98422784
000240 a7 e1 ec 41 26 38 e9 40 2f 29 09 40 62 39 d1 41
       29.610182 7.288104 2.1431386 26.153019
000250 f0 12 99 40 46 74 03 41 9c 6f a8 41 0d 47 10 40
       4.7835617 8.215887 21.054497 2.2543366
000260 1b ce ac 40 20 bb e4 3f 59 8a 05 42 95 45 04 3f
       5.4001594 1.7869606 33.385105 0.51668674
000270 0d 40 05 40 08 34 ff 3f 4f f2 bd 3f 79 2b 84 3d
       2.0820343 1.9937754 1.4839572 0.06453604
000280 7d 88 83 40 a1 b4 07 40 85 03 4d 40 7e 84 33 3f
       4.110411 2.1203997 3.2033398 0.7012404
000290 5a 45 a3 41 7a b7 d2 40 a1 b4 aa 40 7f 48 3e 41
       20.408863 6.584897 5.3345494 11.892699
0002a0 d2 c5 04 3e 4c 81 47 41 c1 00 30 41 47 1c 0d 41
       0.12966087 12.469067 11.000184 8.819404
0002b0 5d 9e b2 41 a1 69 94 3e d4 62 23 41 4d c3 15 3f
       22.327326 0.28986838 10.211628 0.5850113
0002c0 4b 4c 27 41 fc f5 0f 41 f4 d8 44 40 62 d8 82 40
       10.456126 8.997555 3.0757418 4.088914
0002d0 ef b4 4a 41 7b 6f 82 3f b1 5a 33 41 ab 1c f1 40
       12.669173 1.0190271 11.209641 7.5347495
0002e0 6f 6f a2 41 c3 c0 8a 40 88 39 2e 41 0a fe 74 41
       20.30441 4.3360305 10.889046 15.312021
0002f0 08 51 03 40 41 80 c7 3f da fa 5f 41 7f 63 22 41
       2.0518208 1.5586015 13.998743 10.149291
000300 19 d6 fb 40 bd aa c1 41 90 e0 03 41 9d d0 ea 40
       7.869885 24.208368 8.242325 7.3379655
000310 29 a6 3d 41 e0 ad 99 40 6a 72 d6 41 fe 75 ee 40
       11.853066 4.802475 26.805866 7.4519033
000320 66 63 94 40 37 b5 98 41 3c ad b9 3f 4f e5 83 40
       4.6371336 19.088484 1.4505992 4.121742
000330 c5 cb db 41 c9 d9 17 41 a7 25 56 3f ea e2 2d 3f
       27.474497 9.49067 0.836512 0.6792437
000340 0a 74 35 41 9d e6 c1 3f 37 c4 ad 41 d1 b5 bc 40
       11.34083 1.5148503 21.720808 5.8971944
000350 5b b3 2b 41 51 7b 03 40 cf 39 29 3f ad f6 dc 3d
       10.731288 2.0544016 0.66103834 0.10789237
000360 9f 99 15 41 49 da 58 40 8c 2b ea 3f fe 64 1d 41
       9.350005 3.388323 1.829454 9.837156
000370 ed 52 92 41 a5 71 7e 41 37 50 a5 3f e6 a7 ac 3d
       18.290491 15.902745 1.2915105 0.084304616
000380 35 91 8b 3b 4c 3f 6f 41 57 13 cd 40 21 25 9c 40
       0.0042592534 14.952953 6.408611 4.8795323
000390 e9 33 20 40 95 a5 d7 3e 64 8f 22 41 84 b0 cd 40
       2.5031683 0.42118517 10.160007 6.4277973
0003a0 56 50 c0 41 04 00 00 00 07 43 ae 40 d8 d7 86 3f
       24.039227 6e-45 5.445682 1.053462
0003b0 32 1b a0 3f 3b d7 23 41 a8 55 1b 41 3b 82 3f 40
       1.2508299 10.2400465 9.708412 2.9923236
0003c0 bc b6 52 41 36 7c 5e 40 b8 ca b8 3e 6f 17 bb 40
       13.169613 3.4763312 0.36092162 5.8466105
0003d0 11 0a 53 41 7c a7 c7 3f f2 00 36 41 d7 80 d6 3f
       13.189958 1.5597987 11.375231 1.6758069
0003e0 9a f1 9e 3b 3f 47 1d 40 d0 14 51 41 7b 76 63 41
       0.0048505785 2.4574735 13.067581 14.216426
0003f0 d7 0d 77 41 12 6e 85 41 49 30 7f 41 ab 05 4c 3e
       15.440879 16.678745 15.949288 0.19924037

bn1.running_var f4 [300]
000000 8f a6 e4 42 35 06 d4 40 38 7c 97 43 3f 20 11 42
       114.32531 6.6257577 302.97046 36.28149
000010 e1 5b 96 40 4d 77 93 42 ad a6 69 43 38 d7 8c 42
       4.6987157 73.73301 233.65108 70.42035
000020 43 9d 47 43 06 ba ef 42 f1 74 25 42 9a 7b 5a 43
       199.6143 119.86333 41.3642 218.48282
000030 cd 17 cc 42 c8 76 f1 3b 0f 7c 0a 43 f4 a6 29 43
       102.046486 0.007368896 138.4846 169.65216
000040 ab bb a7 42 bf de 2f 43 cd 3b 26 43 72 e4 1d 43
       83.86654 175.8701 166.2336 157.89236
000050 11 9c 77 42 b9 9e 03 3e cc ce 81 41 30 a8 40 41
       61.90241 0.12853517 16.225975 12.041061
000060 c0 07 a9 43 f6 0c 72 42 61 5b 03 41 7f 1a da 42
       338.06055 60.512657 8.209809 109.05175
000070 89 ad 45 40 27 c8 5d 43 94 d2 ab 42 f0 50 76 42
       3.0887167 221.78185 85.911285 61.57904
000080 a9 d8 e6 40 d3 95 2b 42 ba b3 e6 43 fa af 71 42
       7.213948 42.896313 461.4041 60.421852
000090 be 8a b2 42 1a 57 bc 40 4d 3e ba 40 cb 2d d6 43
       89.27098 5.8856325 5.820105 428.35776
0000a0 8f f9 d7 41 10 dc 45 43 63 cb f3 42 e1 1d f6 43
       26.996855 197.85962 121.89724 492.23343
0000b0 b2 1b ea 40 74 29 61 40 b3 ad b9 42 08 40 96 42
       7.315881 3.518155 92.83926 75.12506
0000c0 d2 13 41 42 a6 bc 96 41 60 d5 f2 41 2b 63 57 43
       48.269356 18.842113 30.354187 215.38737
0000d0 20 07 96 43 36 4e 08 42 70 f7 4d 40 b4 c8 fd 41
       300.05566 34.076378 3.2182274 31.723
0000e0 4b 2f a8 42 1f 92 89 42 d7 de 5e 43 94 2a d5 43
       84.09237 68.78539 222.87047 426.33264
0000f0 ce f5 07 43 47 bf fd 3f 86 cc 9e 43 ee 7f 59 42
       135.96017 1.9823998 317.59784 54.37493
000100 e9 19 ea 41 04 37 0a 43 c6 bd 1f 43 6e 24 bd 43
       29.262651 138.2149 159.7413 378.2846
000110 1c 57 f3 41 e5 85 a9 2a 4f 56 b3 41 3f 4f c0 42
       30.417534 3.0113339e-13 22.417143 96.15478
000120 09 f0 ab 43 3c 1b 14 42 8a 5f 8f 42 5d 5a 03 43
       343.87527 37.026596 71.6866 131.35298
000130 c0 23 60 42 40 53 30 42 77 ec 04 3f 1b 03 82 43
       56.034912 44.0813 0.51923317 260.02426
000140 11 ec 75 42 71 67 b2 43 69 23 a4 3e 4c db ad 43
       61.480534 356.80814 0.32058266 347.71326
000150 35 c4 54 40 67 4c e4 41 dd 24 98 42 37 ac 18 42
       3.3244755 28.537306 76.072 38.16818
000160 c7 72 ef 42 4b da 02 43 8b 46 a0 42 b8 63 40 43
       119.724174 130.8527 80.13778 192.38953
000170 a2 af bb 42 26 c1 1e 43 37 f7 96 42 63 d5 04 43
       93.84303 158.75449 75.48284 132.83354
000180 2c 75 08 42 82 c3 65 43 2b 47 81 43 69 7f 6a 43
       34.114426 229.7637 258.556 234.4977
000190 d4 3e da 42 a3 dc 3c 43 1e 4f 08 43 e0 5e 63 40
       109.12271 188.86186 136.30905 3.5526657
0001a0 35 ec 17 40 1e 13 5f 43 de ba a4 43 8d ae 01 42
       2.373792 223.07468 329.4599 32.42046
0001b0 6e 9e db 42 9f 66 9c 3e 52 de 42 43 a4 14 3a 42
       109.80943 0.30547044 194.86844 46.520157
0001c0 91 2a 34 43 ed 59 b1 43 dd 2d 03 44 91 e8 20 43
       180.16628 354.70255 524.7166 160.90846
0001d0 66 f6 13 44 fb b4 34 42 53 c2 76 42 a8 1c 61 42
       591.85 45.17674 61.68977 56.277985
0001e0 d1 36 0e 42 8a 73 83 43 ba 8f 4c 41 b8 82 8c 43
       35.55353 262.90265 12.7850895 281.02124
0001f0 5b 38 c4 40 6d 4c d4 3f e3 03 74 40 99 92 62 43
       6.1318793 1.6585823 3.8127372 226.57265
000200 d2 81 b4 43 42 e2 48 43 a4 21 92 3c b0 ba d1 40
       361.01422 200.88382 0.017838307 6.554039
000210 47 ca 7f 42 8c cc 04 42 29 8b d8 42 d7 f3 a2 43
       63.947536 33.199753 108.2718 325.905
000220 ee af 89 43 7a 2c f6 40 b9 ab 7d 42 cf 46 43 42
       275.37445 7.6929293 63.417698 48.81915
000230 10 b5 08 42 51 11 c0 42 a0 19 06 43 f8 cd 27 41
       34.17682 96.03382 134.1001 10.487785
000240 9a 17 bc 43 40 ca b8 42 b5 af 02 42 f5 1a d7 43
       376.1844 92.39502 32.67159 430.2106
000250 55 e1 0d 43 b0 65 0c 43 f0 29 62 43 ce 63 36 42
       141.8802 140.39722 226.16382 45.597466
000260 bf 38 29 43 65 92 b1 41 86 38 7b 44 f9 9f bd 40
       169.22166 22.196482 1004.8832 5.925778
000270 ce 9f 33 42 ee 8e 1b 42 a6 1e 9a 41 3d 93 95 3e
       44.90606 38.88958 19.264965 0.29213896
000280 7b de 45 42 02 22 36 42 74 c7 d2 42 b6 42 bc 40
       49.467266 45.53321 105.38956 5.8831434
000290 d8 d9 c6 43 3f 05 51 43 b5 83 86 42 57 70 85 43
       397.7019 209.0205 67.25724 266.87766
0002a0 2c 8f 52 3f b8 65 e0 42 ae 59 10 43 c3 7a 08 43
       0.8224971 112.19867 144.35031 136.47954
0002b0 62 72 ec 43 f4 db 0c 40 56 84 21 43 e5 00 a7 40
       472.89362 2.2009249 161.51694 5.218859
0002c0 7e 9f 18 43 4f a1 2c 43 c0 52 67 42 59 36 b1 42
       152.62302 172.63011 57.83081 88.60615
0002d0 2f e3 21 43 e3 cd 99 41 3c d0 81 43 fc 91 85 42
       161.88744 19.22553 259.62683 66.785126
0002e0 46 ed e8 43 35 c0 cc 42 83 c3 18 43 cf ac 62 43
       465.8537 102.375404 152.76372 226.67503
0002f0 e7 ef da 41 37 86 ab 41 ed fb 85 43 30 e8 65 42
       27.36714 21.440535 267.96817 57.476746
000300 9c ca 16 43 77 7e 07 44 2f 97 22 43 ac a9 7f 43
       150.79144 541.976 162.59056 255.66278
000310 9f 1e 04 43 28 14 fd 42 63 00 09 44 f2 47 86 43
       132.11961 126.53937 548.00604 268.56207
000320 65 4f 06 43 81 64 be 43 7d 14 1a 42 58 c4 f2 42
       134.31013 380.7852 38.520008 121.383484
000330 a6 c2 2b 44 e9 a6 14 43 d2 c5 39 41 8e 36 05 41
       687.0414 148.652 11.610796 8.325819
000340 c7 10 3f 43 1b b9 ab 41 c0 9b 8d 43 be e5 a3 42
       191.06554 21.465384 283.2168 81.948715
000350 88 03 c4 42 08 4c ec 41 29 4f af 40 6b a8 42 3f
       98.0069 29.537125 5.478413 0.76038235
000360 de 69 65 43 14 b0 b8 42 9f b2 0d 42 32 69 1e 43
       229.41354 92.3439 35.424435 158.41092
000370 d4 3d ad 43 61 e5 74 43 14 c5 97 41 7d 2f 39 3f
       346.48303 244.89601 18.97123 0.72338086
000380 50 7f 94 3c 00 f2 54 43 92 d9 6f 42 7e 69 51 42
       0.018127114 212.94531 59.96247 52.35302
000390 bd 94 62 42 16 ff ac 40 e7 6c 0e 43 51 7b 50 42
       56.645252 5.4061384 142.4254 52.120426
0003a0 2c b0 21 44 04 00 00 00 15 bf 26 43 f9 36 9a 41
       646.7527 6e-45 166.74641 19.276842
0003b0 5b 7c 7a 41 2d db 0d 43 15 99 53 42 a1 63 78 42
       15.65536 141.85616 52.899494 62.097294
0003c0 08 fb f8 42 6f 84 cf 42 14 64 7e 40 32 31 8a 42
       124.490295 103.75866 3.9748583 69.096085
0003d0 d3 be 12 43 87 77 b7 41 1e 4e 07 44 a7 49 df 41
       146.7454 22.933363 541.2206 27.910963
0003e0 ce 56 96 3c 5d 7f 77 42 d0 cf 52 43 87 1d 82 43
       0.018351939 61.87438 210.81177 260.23068
0003f0 9e 76 a2 43 24 f6 87 43 e8 96 69 43 20 7c 83 3f
       324.9267 271.92297 233.58948 1.0272255

fc2.weight f4 [200, 300]
000000 56 a1 b0 3d 85 2d 7b 3e dd 18 ba 3d fa ca 80 be
       0.086245224 0.24529083 0.090867735 -0.2515486
000010 25 8f 47 bd 24 97 89 bd 53 c0 79 3e c9 91 7f 3c
       -0.048720498 -0.06718281 0.24389772 0.015598723
000020 84 8d 00 3e e4 62 ae 3c e0 17 37 be 2f 72 6b be
       0.12553984 0.02128739 -0.17880201 -0.22992776
000030 61 6d b4 bd a2 f8 8d be 3c 46 49 bd 20 9d 8d 3d
       -0.08809925 -0.27728754 -0.049139246 0.06914735
000040 de 9e c9 3d 88 85 4a 3d 13 09 94 be 14 0a db 3e
       0.09844755 0.04944375 -0.28913173 0.42781126
000050 3b 44 a5 3e e8 f7 88 bd c3 ec 28 3e 1b 5e d0 bd
       0.32278618 -0.06687909 0.16496567 -0.10174199
000060 c0 7d 0a 3e da 61 60 3e b7 aa ee 3e 78 b1 9e 3d
       0.13524532 0.21912327 0.4661462 0.07748693
000070 d1 5c f3 3e 81 1a e6 bd 3a 50 64 be 48 57 7d 3d
       0.4753175 -0.11235524 -0.22296229 0.061850816
000080 bb de 86 be c7 12 2c 3e dd dc f8 bd e5 da 7f bc
       -0.26341805 0.16804038 -0.12151501 -0.015616153
000090 51 13 e4 3b e0 d0 fa 3b a9 5d 13 be 88 d4 01 3e
       0.0069603105 0.0076542944 -0.14391197 0.1267873
0000a0 73 c7 49 3d c8 4b 0b be 41 61 02 be 1b a2 03 3e
       0.049262475 -0.13603127 -0.12732412 0.12854807
0000b0 53 b5 f6 3e cd 0c 37 3e 10 4b 62 3e 24 a5 ae bc
       0.48185214 0.17875977 0.22098947 -0.02131898
0000c0 b1 fe 03 bd 24 ca 80 3e cf ac da 3d 7e 0d 85 3e
       -0.032225315 0.2515422 0.10677492 0.25986856
0000d0 6e f0 25 3e 82 44 2b 3e e6 f0 49 3f 51 c6 a6 3d
       0.16204998 0.16725352 0.78883207 0.081432946
0000e0 26 c0 f3 3c 1f 9c 9f be 8c e4 a6 3d 80 dd ac 3d
       0.02975471 -0.31173798 0.081490606 0.08440685
0000f0 0e de 2d be 9a 71 45 3f fa 24 62 bd d6 6e 62 3e
       -0.16979238 0.7712647 -0.055211045 0.22112593
000100 8d f1 ed be b1 7a 6b be cd 73 32 be c5 d2 13 be
       -0.4647335 -0.22996022 -0.17426987 -0.14435871
000110 52 6c 0e bd c0 16 2a 3e 11 27 4b be d4 f7 8d 3d
       -0.03477127 0.16610241 -0.19839121 0.06932035
000120 a2 24 fe bc e5 33 aa be d4 f3 bb 3d 93 af 9f bd
       -0.031023327 -0.33242717 0.09177366 -0.0779716
000130 ce 8a a7 bd a6 e9 13 3e bc b7 8f 3e e6 ce 1e be
       -0.08180772 0.14444599 0.28069866 -0.15508613
000140 a5 4e 17 be 5c bf 20 bf 76 6a 91 bc 8a 92 80 be
       -0.14776094 -0.6279199 -0.01775096 -0.251118
000150 02 14 de 3e 69 43 3f bd 30 0e f0 3d 0e e1 6a 3e
       0.4337464 -0.046695147 0.11721456 0.22937414
000160 7d 27 02 3e 91 0b 68 3e 77 1e 18 be 0c b7 72 3d
       0.12710376 0.22660662 -0.14855371 0.0592566
000170 8e e1 96 3c d9 ca 8e 3e 12 c6 b4 3d 91 24 8d 3d
       0.0184181 0.27889135 0.088268414 0.0689174
000180 ad 22 8f bc 45 02 da 3d 82 29 4a bd eb 5a 2b 3d
       -0.01747259 0.10644964 -0.04935599 0.041834753
000190 e5 d7 33 be 04 27 86 3e aa d2 cf bc 11 ed c1 3e
       -0.17562826 0.26201642 -0.025369007 0.3787618
0001a0 a3 59 8d 3b f5 fa 9c bc 21 3d 3a be 9a d1 28 3e
       0.004313664 -0.019162634 -0.18187381 0.16486207
0001b0 34 20 a9 be 88 c3 e8 bd 56 95 df 3c b9 bc 9e 3e
       -0.33032382 -0.113654196 0.027292889 0.3100336
0001c0 24 eb 50 3e 97 6d 3a 3e b9 ea 20 bd eb ec 5e bd
       0.20402199 0.18205868 -0.03928635 -0.05442516
0001d0 53 27 23 3e e0 cd 23 bd ff 79 3e be 60 c8 05 3e
       0.1593297 -0.03999126 -0.18601225 0.13064718
0001e0 6a f0 47 3d e6 bd 60 3e f5 50 00 be 2c be 4e be
       0.04881326 0.2194744 -0.12530883 -0.20189732
0001f0 ca 84 56 be 8e 52 83 3e af 86 f3 3e 6a 4c 51 3e
       -0.20949093 0.25648922 0.47563693 0.20439306
000200 61 6a ff bd 58 3f 38 3d 24 6e 54 3e 95 de 29 bd
       -0.12471462 0.044982284 0.2074514 -0.041472036
000210 f8 73 c6 be 32 6a c1 3e 65 1a c2 be 51 9f 1a be
       -0.38760352 0.37776333 -0.37910762 -0.15099837
000220 98 7a ca be 61 b5 a1 bc 3c 3c 64 bd 2c ce 76 3e
       -0.39546657 -0.019739809 -0.055721506 0.24102086
000230 64 a2 8f 3e 9a 61 31 3d b6 5a 15 3e 21 1f f2 3e
       0.28053582 0.04330597 0.14585385 0.47289374
000240 7f 69 d9 be 1b ad 98 be 83 9b 28 bd 3d 75 95 3d
       -0.424633 -0.2981957 -0.041163933 0.07297752
000250 c9 d5 12 be 85 bc 63 be db 51 15 be 3d 27 99 3d
       -0.14339365 -0.22239883 -0.14582007 0.07478187
000260 0f ad d6 bd 18 38 2b 3d 26 91 2b be e0 c5 43 3e
       -0.10482227 0.041801542 -0.16754588 0.19118452
000270 81 76 a5 be 20 2b 01 3e b8 c5 84 3d f7 91 27 3e
       -0.32316974 0.12614107 0.06483024 0.16364275
000280 ef 1b e3 3d 8a 68 4d bd 11 cb 47 3e 6c 29 10 3f
       0.11089312 -0.050148524 0.19511057 0.56313205
000290 2b fb 3d be d6 77 53 3e 78 2b 52 bb df ce 8e 3d
       -0.18552844 0.20651183 -0.0032069366 0.06973051
0002a0 a6 00 46 3e b2 a5 d0 3c c3 bd 9b be 75 78 44 bc
       0.19336185 0.025469635 -0.30418214 -0.01199161
0002b0 34 6c 80 be bd d1 0f bd fb 6e f0 bd 47 19 fa 3e
       -0.25082552 -0.03511213 -0.11739918 0.4884741
0002c0 a9 8e de 3c 91 77 1f be 0a 75 49 3e 1e 8a 58 bd
       0.027167635 -0.15572955 0.19673553 -0.052866094
0002d0 30 01 ec 3d e2 89 ed be ac 14 0f 3d ae dc 46 bf
       0.11523664 -0.4639426 0.034931824 -0.7768048
0002e0 82 15 91 be a0 6c 5b be d5 96 b3 3c e3 f9 4b be
       -0.28336722 -0.21428156 0.021922508 -0.19919543
0002f0 6b db cf bc bb 04 d0 3e 58 03 51 3e e3 3f fc bd
       -0.025373181 0.4062861 0.20411432 -0.12316873
000300 17 3d bd be c7 80 97 bd 73 c8 8f 3e 42 3e 13 be
       -0.3696067 -0.07397609 0.28082618 -0.14379218
000310 ba b6 12 3e fb 87 7b 3e a0 bf 47 3e 14 a1 45 3b
       0.14327517 0.24563591 0.19506693 0.0030155824
000320 ce ec bf 3c 8a 81 b0 3d 86 e4 a4 bc 70 83 81 be
       0.023428347 0.086184576 -0.0201285 -0.2529559
000330 f8 ad 4a 3b b5 27 73 be 67 37 0b 3e eb 75 a7 3e
       0.0030926447 -0.23745616 0.13595353 0.32707152
000340 38 eb b3 3d 68 b0 90 bd ab 49 ff 3d e0 dd 2d bf
       0.08785099 -0.07064897 0.12465223 -0.6791668
000350 98 13 fc be 6d c0 87 3e c9 8c 1e 3d 4c b3 3c be
       -0.492337 0.26513997 0.038708482 -0.18427771
000360 39 0f 85 bc 26 40 c0 3d 32 4c 0f 3e e5 ae aa 3e
       -0.01624261 0.09387235 0.1399391 0.3333656
000370 f8 a4 78 3d e4 5d 17 be 5f 32 44 3e cd 00 f5 3c
       0.0607042 -0.1478191 0.1915984 0.029907608
000380 a7 7d 8c 3e 00 97 df bd d1 93 0b be 9a 87 e4 bd
       0.27439615 -0.10917473 -0.13630606 -0.111586764
000390 95 27 99 3d ed 18 e3 be 02 f1 83 3e 87 a2 24 be
       0.07478253 -0.44354954 0.25769812 -0.16077624
0003a0 c7 e2 e1 3d 46 d8 25 3c a0 bf 83 bd 91 0f 01 3d
       0.110295825 0.010122364 -0.06433034 0.031508986
0003b0 0a 30 06 be 96 95 ef 3d f9 ed a6 be 45 51 aa 3d
       -0.13104263 0.11698453 -0.32603434 0.08316282
0003c0 59 74 90 3e 8e 6c 13 3d 3e b9 2c be e9 0a 5e 3d
       0.28213766 0.035992198 -0.1686754 0.054209623
0003d0 b4 23 ff bd 15 6c 08 be 01 39 99 be ad ad 2a be
       -0.12457982 -0.1332248 -0.29926303 -0.16667815
0003e0 19 a0 01 ba 92 f6 7f 3e 21 ed b6 be 1e d7 0e 3d
       -0.0004944816 0.24996403 -0.3572779 0.03487312
0003f0 a4 81 2b 3d 0c 0a 88 be ff 34 98 3d 6b a7 e9 3d
       0.04187168 -0.26570165 0.07431983 0.114088856
