checkpoint_critic_1.pth (torch_old, 106328 bytes, 9 tensors)

fcs1.weight f4 [200, 24]
000000 53 59 1a 3e 89 1a 71 be 22 35 25 be 85 d0 0b 3e
       0.15073137 -0.23545279 -0.1613355 0.13653763
000010 c1 97 82 3e 44 cc 80 be 07 e1 b2 bd b6 80 12 3e
       0.25506404 -0.25155842 -0.08734327 0.14306912
000020 d0 40 7f 3e 29 09 75 be 92 9d 9b 3d c4 7e f4 3e
       0.24927068 -0.23929276 0.075984135 0.47752964
000030 27 5d 0d 3e 4b 42 a9 bd ed 24 ed 3d 99 1f 02 3f
       0.13805066 -0.082645975 0.11579309 0.50829464
000040 6f 60 4b 3e f6 76 fb bd 0c 46 03 3e de 5b a4 3e
       0.19861005 -0.122785494 0.1281969 0.3210134
000050 c6 66 09 3e 60 3c 20 bc bd 94 09 3e 5e 87 c9 3e
       0.13418111 -0.0097800195 0.13435645 0.3936109
000060 a2 89 f9 3e 58 40 53 3e 50 a5 cd bd c6 83 0e bc
       0.48737818 0.20630014 -0.100412965 -0.008698409
000070 18 13 d9 3e 72 8b a2 be 57 dc 04 be ab d2 d0 bc
       0.4239738 -0.31747013 -0.12974678 -0.02549108
000080 50 cd 11 3f 8e eb 8f 3d fc 63 1a be 64 cb b5 bd
       0.56953907 0.0702735 -0.15077204 -0.08876684
000090 3b 00 81 3e 22 60 8a be 85 60 be bd 33 fb 57 bd
       0.25195488 -0.2702647 -0.092957534 -0.052729797
0000a0 07 9e ee 3e 64 5f 12 3e e7 ad af 3d e0 9e 8b 3c
       0.4660494 0.14294201 0.08578091 0.017043531
0000b0 71 13 93 3e 6a be a5 be ef b2 ca bc ab 66 8c 3c
       0.2872577 -0.32371837 -0.024743525 0.0171388
0000c0 e3 cd 8d 3e 2f 49 38 3e 5e d3 2d be df 54 fd be
       0.27696142 0.17996667 -0.16975161 -0.49478814
0000d0 32 9a 80 3e 4f 52 17 bf 5a f3 8b be 4a a1 e1 be
       0.25117642 -0.5910997 -0.273341 -0.44068366
0000e0 c3 57 d7 3e 24 02 61 3e 6e 08 be bb 88 e1 82 be
       0.42059144 0.21973473 -0.0057993447 -0.25562692
0000f0 51 d4 05 3e ce 48 9d be dd a4 46 3c 04 95 a2 be
       0.13069274 -0.30719608 0.012124267 -0.31754315
000100 da fc db 3e c8 3f 14 3d 95 a7 cd bd ce 6f 8d be
       0.42966348 0.03619364 -0.10041729 -0.27624363
000110 ee c9 c9 3e a4 6e b9 be 97 86 00 bc 8d 50 b7 be
       0.39411873 -0.36217225 -0.007844589 -0.35803643
000120 40 57 54 3e 70 e4 27 3f ac e4 6b be e9 0b 59 3e
       0.20736408 0.6558294 -0.2303645 0.2119595
000130 13 95 1a 3f 36 3d 31 3e 49 0a 3e be 85 84 1a 3e
       0.6038372 0.17308506 -0.18558611 0.15089615
000140 a7 8f 74 3e 80 34 22 3f c2 dd a7 3d 54 23 9d 3e
       0.23882924 0.6336136 0.08196594 0.30691016
000150 e4 13 df 3e 03 94 06 be 69 fb 7b 3d 77 e8 70 3e
       0.43569863 -0.131424 0.06151906 0.23526178
000160 68 10 9e 3e ff d6 03 3f 38 ad bd 3d 84 78 4d 3e
       0.30871892 0.51499933 0.092615545 0.20065504
000170 cb ff 3f be fb 93 d0 be f3 d3 a9 3d bc ba 38 3e
       -0.18749921 -0.407379 0.08292379 0.18039984
000180 35 59 aa 3d 85 75 18 be 8e 34 53 3d 9e 84 10 be
       0.08317796 -0.1488858 0.051563792 -0.1411309
000190 4f e0 28 be ea d0 94 3f c0 57 14 3e d8 fd f1 bd
       -0.16491817 1.1626256 0.14486599 -0.11815995
0001a0 9a e7 a9 3c ba f0 34 be 1f e6 91 be 46 f1 c9 3e
       0.020740319 -0.17669955 -0.2849588 0.3944189
0001b0 12 a9 74 3b 81 54 90 3f 45 c4 86 be 84 f2 c6 3e
       0.003733222 1.1275789 -0.26321617 0.388569
0001c0 47 b1 46 be 56 a8 a7 be 7b 40 1a be a2 b7 bf 3e
       -0.19403563 -0.32745618 -0.1506366 0.37444788
0001d0 01 f5 89 3e 20 16 ca 3f 55 3d a1 bd 49 fe a8 3e
       0.26944736 1.5788002 -0.07873026 0.33006504
0001e0 26 dc f5 bd ea 2d ed 3c b6 f5 8f bc ff 52 fc bc
       -0.120048806 0.028952558 -0.017573219 -0.030801294
0001f0 91 ad 84 3f f7 77 e9 3d e0 7c ae 3c 3a e9 82 3b
       1.0365468 0.113998346 0.02129978 0.003995088
000200 96 df f4 3c 46 86 cc bc 0d 05 55 3d 2e c0 79 bd
       0.02989177 -0.02496637 0.05200677 -0.060974292
000210 b3 bd 0d 40 db 98 0c 3d 99 0a 88 bd 61 51 a2 bd
       2.2147033 0.03432546 -0.06642646 -0.07925678
000220 6f 04 39 3d 8b 2a 37 3d 95 bc 0d 3d d5 cd 42 3e
       0.045170244 0.044718307 0.034603674 0.19023831
000230 84 27 d2 40 65 35 af bd b4 88 4c bd 22 a1 f8 3d
       6.5673237 -0.08555106 -0.049935058 0.12140109
000240 af 3c df 3e d8 cc 93 3d 7c d1 0a be 68 e0 03 3e
       0.43600985 0.07216805 -0.13556474 0.12878573
000250 d5 8f b8 3e 21 ae 9a be a7 f6 c5 bd 4b 9b ec 3d
       0.36047235 -0.30210975 -0.09666186 0.11553057
000260 61 8a b8 3e 87 4c 29 3e fb 85 a2 bd 5d f8 4a 3d
       0.36043075 0.16533099 -0.07935711 0.049553264
000270 bd 5b 90 3e 55 13 d7 be ea 35 8a bd 43 e4 0c 3d
       0.2819499 -0.42006937 -0.067485645 0.034397375
000280 c3 00 01 3f 9a c8 65 3e 27 d5 0d bd 71 cf 92 be
       0.5039179 0.22439805 -0.034627106 -0.2867389
000290 45 23 75 3e 84 a2 b5 be 28 a1 cc bd 02 c9 90 be
       0.23939236 -0.35475552 -0.099916756 -0.28278357
0002a0 c1 fb 1d 3f 78 53 8f 3e 3d 7a 57 be 87 71 7f bd
       0.6171227 0.2799337 -0.21042724 -0.062364127
0002b0 4d d3 6a 3e e2 10 27 bf 67 48 a1 bd f2 4b 6e 3c
       0.22932167 -0.65260136 -0.07875138 0.014544474
0002c0 2f 0d e4 3e 68 99 16 3e 31 f1 c7 3c b6 39 14 be
       0.44541308 0.14706957 0.024407001 -0.1447514
0002d0 7a fa 3e 3e 3c 7e 04 bf ac 40 e6 bc 42 10 1a be
       0.18650237 -0.5175512 -0.02810701 -0.15045264
0002e0 bb 76 df 3e b5 a8 92 3d 84 f2 1c be e7 ed 86 be
       0.43645272 0.071610846 -0.15326887 -0.2635338
0002f0 9c 14 ee 3d 50 2c 04 bf 65 3f c7 bd 3c 37 7d be
       0.11625025 -0.51630116 -0.097288884 -0.24728101
000300 df 40 ed 3d ae 2a 83 3f 9c 07 c7 bc e2 2c ca 3e
       0.11584639 1.02474 -0.02429562 0.39487368
000310 22 2e 51 bc 84 ea 47 3d 55 71 50 3d ef d9 ca 3e
       -0.012767347 0.048807636 0.05088933 0.39619395
000320 91 ac b4 3e 81 eb b1 3f b6 3d 87 bc b6 78 d1 3e
       0.35287908 1.3899995 -0.016508918 0.40912408
000330 2d dd 91 3c 70 d5 e2 3e 16 0c 62 bd 71 c6 f4 3e
       0.01780566 0.44303465 -0.055187307 0.4780765
000340 2c 4f 05 3f 2d 78 d1 3f 98 e7 d7 bd d8 dc c2 be
       0.5207393 1.63648 -0.1054222 -0.38059115
000350 d5 32 04 bf 88 16 d6 3f 4d ff 11 be 23 d9 c0 be
       -0.51640064 1.6725626 -0.14257546 -0.37665662
000360 1e 11 5d bf 48 a0 08 bf a3 71 c2 3c db 38 23 3d
       -0.86354244 -0.5336957 0.023735827 0.039849143
000370 54 07 00 3e 26 2e 82 bf db 4e c1 ba 15 18 a1 3c
       0.12502795 -1.0170333 -0.0014748232 0.019664804
000380 06 71 18 bf 1b 12 a5 be a7 bb 59 3b ac 20 92 3c
       -0.5954746 -0.32240376 0.0033223422 0.017837845
000390 2e 3d 09 3e 16 e4 27 bf 43 53 d1 3a e8 9c 23 3d
       0.13402244 -0.65582407 0.0015970248 0.03994456
0003a0 f6 43 da be 6f c3 d4 be 49 33 b5 bc c3 28 09 be
       -0.42629975 -0.41555354 -0.022119181 -0.13394456
0003b0 53 e9 2d 3e 99 ba d5 3f 7b 00 c3 bc a5 c6 35 bc
       0.16983537 1.669757 -0.02380394 -0.011094724
0003c0 01 10 b2 3d e6 fd 33 3e 97 e2 08 3d 3d 97 e0 be
       0.08694459 0.17577323 0.033419218 -0.43865386
0003d0 84 c0 2f bf 46 ef 38 bf 05 77 8c 3d 31 f5 01 bf
       -0.6865313 -0.722401 0.06858639 -0.5076476
0003e0 36 1c b0 3d 18 29 bc 3e 12 16 82 bd fb ce 18 be
       0.08599131 0.36750102 -0.06351866 -0.14922707
0003f0 61 bb 91 be b1 de cd bf b7 69 ec bd f8 ec cb bd
       -0.2846327 -1.6083585 -0.11543601 -0.099573076

fcs1.bias f4 [200]
000000 d7 da 99 3d c3 47 23 be 61 89 01 be 30 ff d7 be
       0.075124435 -0.15945344 -0.12650062 -0.4218688
000010 e6 80 15 bf 3e 21 ed 3c b2 4f 92 be 53 6c b6 be
       -0.5839981 0.028946515 -0.28576428 -0.3562952
000020 24 72 d0 be 44 35 5a bf 55 fb c6 be a7 7f 1f bf
       -0.40712082 -0.85237527 -0.38863626 -0.62304157
000030 bb a2 16 bf 5b 8c 34 bf 39 a4 fc 3d 5b 02 16 be
       -0.58842057 -0.70526665 0.123360105 -0.14649336
000040 72 e4 73 be 1c e7 9c 3e 5b 77 d6 3e 94 bd c8 be
       -0.23817614 0.30645072 0.41887936 -0.39207137
000050 ab f4 9b bf 1c cf df 3c eb 08 5e be 77 3e c8 be
       -1.2184042 0.027320437 -0.2168309 -0.39110157
000060 ba 83 19 be b9 15 7b bf 32 78 2b bf ad c8 79 bf
       -0.14991656 -0.9808002 -0.6698028 -0.9757183
000070 57 81 a7 bf eb 3a 9d 3c 8c cb 57 be 1d 21 93 bd
       -1.3086346 0.019193133 -0.2107374 -0.0718405
000080 3a 05 15 bc 89 d8 52 be bd 52 82 be 6d 79 2c 3e
       -0.009095484 -0.20590414 -0.2545375 0.16843195
000090 d9 07 94 bf df 40 37 bf c7 f2 7e bf dd c8 09 3e
       -1.1564895 -0.7158336 -0.995892 0.1345553
0000a0 56 3f 77 bf 5e 3d 3c bd 19 4c 49 bf af 6d 2f 3e
       -0.9658102 -0.04595696 -0.7863174 0.17131685
0000b0 2b d8 28 bf 9b 26 74 be 22 15 be 3e c9 d9 03 bf
       -0.65954846 -0.23842852 0.37125498 -0.5150419
0000c0 35 79 84 be cb 35 8a be 4f 36 75 3d 65 4c 5d bf
       -0.25873724 -0.26994166 0.059866246 -0.86444694
0000d0 92 b7 b9 3d cf 79 3f be 8d ee c9 3b 9b b9 09 c0
       0.090682164 -0.1869881 0.0061624707 -2.1519535
0000e0 cd 41 16 3e f8 65 6c bf 29 95 56 bf 34 b7 2d bf
       0.14673539 -0.9234309 -0.8382135 -0.6785767
0000f0 39 4c 18 c0 90 ca 07 be 2e 42 03 3e 1f db a7 bc
       -2.3796523 -0.13260865 0.12818214 -0.020490227
000100 96 90 48 be ba f5 2d bd c3 be 70 bf 72 3d 16 bf
       -0.19586405 -0.04247067 -0.9404108 -0.5868751
000110 8e 5e db ba dc 1f 6e bf a1 83 33 3e 19 7f d5 3c
       -0.0016736554 -0.93017364 0.17530681 0.026061581
000120 32 78 87 bf 10 12 a2 3c 45 3c a6 bd 12 3a cc be
       -1.0583556 0.019784003 -0.08116964 -0.39888054
000130 b8 63 40 bf a8 31 e8 be 27 bd ca bf 0c 36 18 bf
       -0.7515216 -0.45350385 -1.5838975 -0.5945747
000140 d7 64 0c bd 70 8a 36 bf ec 23 3e bf b7 58 3b bf
       -0.034275856 -0.7130499 -0.7427356 -0.73182243
000150 66 d3 d3 be b6 79 bb be bc b8 8c be 34 f4 02 bd
       -0.41372222 -0.36616296 -0.2748469 -0.03197117
000160 00 3a 4a be 65 ca ee 3c 2a 8a 06 bf 81 d1 64 bf
       -0.19748688 0.029149244 -0.5255457 -0.8938218
000170 bd 4a 07 bf 45 6b 5e bf 4e 29 37 bf 4d 26 b3 be
       -0.52848417 -0.8688243 -0.715474 -0.3499016
000180 68 2d 71 bf ab 35 05 bf ef a6 e1 be 0c 84 53 bf
       -0.9420991 -0.52035016 -0.44072673 -0.8262336
000190 c1 75 8f be 63 d0 d0 be 4d 99 b8 be cf 7c b9 bf
       -0.28019527 -0.40783986 -0.3605446 -1.4491214
0001a0 23 e6 49 be a5 d6 4f bf f2 14 8a bf 16 9a 98 be
       -0.19716696 -0.81186897 -1.0787642 -0.29805058
0001b0 89 7f 57 be e9 c3 6f 3f 33 c7 3d bf 1b 7a c3 bf
       -0.21044745 0.9365831 -0.7413208 -1.5271639
0001c0 78 0d a9 be eb 63 b7 be fc 47 0b bf 21 50 8f be
       -0.33018088 -0.3581842 -0.54406714 -0.2799082
0001d0 2d 62 61 bd df 79 99 bf 07 bc 24 bf d5 62 fa 3d
       -0.05502527 -1.1990317 -0.64349407 0.12225882
0001e0 09 4d 0c be 57 5c ba be a9 d9 96 bf 4b 88 a6 bf
       -0.13701262 -0.36398575 -1.1785175 -1.3010343
0001f0 1c 35 37 be 18 3a 97 bf a3 17 87 be 70 ed d7 bd
       -0.17891353 -1.1814604 -0.2638522 -0.105433345
000200 f4 2e 84 be 2e 02 83 bf c6 01 f1 3c 0d 2a e4 be
       -0.25817072 -1.023504 0.029419791 -0.44563332
000210 3b 26 6c bf e2 1d 18 bf 1a 58 45 bf be 42 16 bc
       -0.92245835 -0.594206 -0.7708756 -0.009171186
000220 e6 45 ff 3e a9 00 d3 3c 67 f0 dd be 13 71 30 3e
       0.49858016 0.02575715 -0.43347475 0.17230634
000230 28 c1 55 bd c3 5a 93 bf 9c e2 82 bf bd 15 0e 3e
       -0.05218616 -1.1512073 -1.0225406 0.1387548
000240 ca 25 0d bf 2b e8 8f bc b1 e7 d1 be 87 01 1f bf
       -0.55135787 -0.017566761 -0.4099708 -0.62111706
000250 f3 d8 87 bd 52 86 f5 be be 78 bb be a0 48 91 bd
       -0.06633177 -0.4795404 -0.36615556 -0.0709393
000260 93 a9 d9 3d 3a 37 8f bf 53 45 8a bd b0 ca 5f bf
       0.10628047 -1.1188729 -0.06751504 -0.8741865
000270 23 fe ea be f8 19 02 bd 85 82 2b 3e 85 d5 92 be
       -0.45897016 -0.031763047 0.16749008 -0.28678527
000280 bb 55 60 bd 6b cc 22 bc fb 9d 01 3e 37 03 0a bf
       -0.05476926 -0.009936432 0.12657921 -0.53911155
000290 a3 7a 8c be 64 15 5f be 34 cb cf be b0 d2 81 be
       -0.27437314 -0.21785504 -0.4058472 -0.25356054
0002a0 2f 1f a9 be d6 c5 af bf 6a 4a 37 bf ee e1 16 bd
       -0.33031604 -1.373225 -0.7159792 -0.036836557
0002b0 4d cb 99 3e cb 53 8f 3d a1 1f b5 be 7d c1 a3 be
       0.3003792 0.06998404 -0.35375693 -0.31983557
0002c0 af ef c0 be b3 bb 97 3d 0c 23 1e bf a2 5d 14 c0
       -0.37682864 0.07408848 -0.6177223 -2.318215
0002d0 05 48 3d 3a d3 7a 07 3e 9b 7d 2f bf 51 b7 21 be
       0.00072205096 0.13230447 -0.68551034 -0.15792586
0002e0 70 33 9b bf 3b b6 71 be 11 2e 40 3d bc 2d b5 be
       -1.2125072 -0.23604672 0.046918932 -0.35386455
0002f0 97 bd e5 be c8 b5 ad be 4c da 76 be 2f 25 95 be
       -0.44871208 -0.3392775 -0.24106711 -0.2912993
000300 50 f2 82 3c 63 2e 44 3d fb 8c 8c bd 26 cc 9a be
       0.015984684 0.0478958 -0.068628274 -0.30233878
000310 ba 7e c4 bf bc ab 37 bf a3 c3 b9 be 24 69 e5 be
       -1.5351174 -0.7174642 -0.3628207 -0.44806778

bn1.weight f4 [200]
000000 7a c1 7a 3b 02 37 13 bd d4 6e f7 b9 0a e5 cb bb
       0.0038262294 -0.03594113 -0.00047194085 -0.006222372
000010 9e 07 3a 3e 8a b9 9a 3f d2 af f5 ba 1e 0e 28 bc
       0.18166968 1.2087872 -0.0018744415 -0.010257272
000020 15 79 29 3e 32 b5 e5 3e 39 7c bc 3d 34 72 99 3e
       0.16550095 0.44864804 0.09203381 0.29969943
000030 9e 50 85 bb 2e 2a 3b 3f db 03 2d 3e 87 52 19 3e
       -0.004068448 0.73111236 0.16896002 0.14972888
000040 f6 0f 83 3a 15 fc 97 3e d8 27 e8 3d cf d9 7a 3e
       0.0009999264 0.2968451 0.113357246 0.2449715
000050 8f 7e d8 3e 6f bf 83 3b 47 39 0b 3c 7b b0 30 3f
       0.42284057 0.0040206234 0.008497543 0.6901929
000060 46 b1 04 3a f1 90 c9 3d 1d 50 9f 3e 84 db 8a 3e
       0.0005061816 0.098420985 0.3111581 0.27120602
000070 2c d9 b6 3d d1 58 4f bc 38 8b 15 3b fe 9c 93 bc
       0.08928141 -0.012655453 0.0022818577 -0.018019196
000080 20 0c 05 3b e5 b1 f0 3e 51 ab f2 3b b1 07 b7 bb
       0.0020301417 0.47010723 0.0074056764 -0.0055856337
000090 5a 41 8a 3e cc 9b ff 3c dc 99 b3 3e b7 7b fd 3e
       0.27002984 0.03120222 0.35078323 0.4950845
0000a0 82 06 8a 3d 0b 80 2b 3e f0 52 38 3e 5b 9a 11 bd
       0.067395225 0.16748063 0.18000388 -0.035547595
0000b0 73 3f 3d 3e c1 a2 aa b9 7e 3a 28 3e 75 01 46 bb
       0.18481235 -0.00032546188 0.16428563 -0.003021327
0000c0 55 c7 c4 3b 62 44 e6 bb e5 73 5d 3e 54 97 33 3e
       0.0060052075 -0.007027195 0.21626242 0.17538196
0000d0 1e 26 93 3b 46 93 4d be cc 60 c8 3e 89 7a 1e 3f
       0.004490628 -0.20075712 0.3913635 0.61905724
0000e0 f6 5a 45 3e f6 f2 2d 3e 3d be ec 3c 93 ff 8d 3e
       0.1927298 0.16987213 0.028899306 0.2773405
0000f0 bb 6c 1d 3f 96 32 83 3e b2 d0 a1 bb e9 b6 e8 3e
       0.61494035 0.25624532 -0.0049382085 0.4545205
000100 26 78 9a b8 28 92 19 3e fb 7a a6 3d 15 09 44 3e
       -7.3656716e-05 0.1499716 0.081289254 0.1914409
000110 e4 cf c5 ba 0e dd e0 3e 37 e7 6e 3e a6 4d 03 3b
       -0.0015091863 0.4391865 0.23330389 0.0020035296
000120 2b 7d ce 3d f6 c6 71 bb 6f d9 8a b9 82 5e a3 3d
       0.10082468 -0.0036892272 -0.00026483412 0.0797701
000130 34 26 87 3d 29 f8 36 3f 35 96 0a 3f 83 ae f4 bb
       0.065990835 0.7147241 0.5413545 -0.0074670925
000140 89 3a 1c 3e e6 69 71 3e 3c 03 00 3e 8b 9d f7 3d
       0.15256704 0.23575553 0.12501234 0.12090596
000150 dd d6 2d 3d a9 4b 30 3d 32 56 8f 3b 07 12 b6 bb
       0.042441238 0.043040905 0.004374289 -0.0055563482
000160 1b 5f 3f ba 52 5d 2b 3e 67 a4 58 3d ce b2 07 3f
       -0.00073002436 0.16734818 0.05289116 0.5300721
000170 93 73 e8 3e 72 64 47 3d 7f 4e 5a 3e 23 f1 9c 3d
       0.45400676 0.048679776 0.21319006 0.07663181
000180 9e 47 1c 3e 66 1c 79 3e 86 5c dc bb 91 ac 01 3e
       0.15261695 0.2432724 -0.006724897 0.12663485
000190 8a 93 09 3e 32 0e 3c 3e a7 f6 90 bb 20 8e 24 3e
       0.13435188 0.1836479 -0.0044239345 0.16069841
0001a0 88 01 32 bb 8a a2 77 bc 4e cd f8 3c 64 91 07 3d
       -0.0027161557 -0.015114436 0.030371334 0.03309764
0001b0 35 3a 37 3e f7 16 bf 3e da 62 7a 3f 91 ca 76 3e
       0.17893298 0.37322208 0.97807086 0.2410071
0001c0 e5 a9 bf bc a6 f8 36 3b bf e7 d8 3d e9 7d 75 3e
       -0.023396442 0.0027919202 0.10591077 0.23973812
0001d0 95 92 43 3e d0 2f 1e 3e c1 03 07 3f c9 d8 cc 3d
       0.19098885 0.15447927 0.52740103 0.10002286
0001e0 f6 94 87 bd d2 77 81 3d 98 0f 71 3f eb ab 57 3e
       -0.06620209 0.06321682 0.9416442 0.21061675
0001f0 6e dc 2a bb a0 d0 98 3e 2e 0d 01 bb 8b 4e f0 ba
       -0.0026071328 0.29846668 -0.0019691694 -0.0018333955
000200 10 d4 87 3c 15 26 89 3e 3a 6d 2c 3b da 99 13 3e
       0.016580611 0.26786867 0.0026310221 0.14414158
000210 12 20 0d 3e 04 54 97 3e f2 f7 0d 3f 67 d1 4b 3e
       0.13781765 0.29556286 0.5545646 0.199041
000220 7b 6f e6 3d 6b c3 cc 3b bc b5 9a 3c 2e c7 87 bb
       0.11251732 0.0062488816 0.018885486 -0.004143617
000230 54 aa 57 bb 2b 1f 4c 3c 83 df 8e 3e 07 18 7d bb
       -0.003290792 0.012458603 0.279049 -0.0038619058
000240 72 a5 5e 3e 7d 9d f7 3c d3 5f 33 3f 60 06 0f bd
       0.217428 0.030226463 0.7006809 -0.03491819
000250 7f 90 61 3f 98 7e 8f 3e bf 8d 6d 3d 93 fb 75 be
       0.8811111 0.2802627 0.057996508 -0.24021749
000260 2d 5a 32 3e 8c 71 05 3f 70 42 d9 ba c2 23 2c ba
       0.17417212 0.52126384 -0.0016575586 -0.00065666076
000270 39 03 7e bc 41 bd 62 ba 00 46 ce b8 a6 e8 05 3e
       -0.015503698 -0.0008649417 -9.835884e-05 0.1307703
000280 c3 1c 5e bb 93 38 43 3d 7a 4e 0e 3f 69 44 1e 3f
       -0.0033891655 0.047661375 0.55588496 0.61823136
000290 b9 55 07 3e d1 fd 91 3a d9 ce 88 3b 70 24 0b 3e
       0.13216294 0.0011138265 0.004175049 0.13588119
0002a0 f1 f6 21 3f 64 40 29 3e 20 df 0e 3e 35 87 85 3a
       0.6326743 0.1652847 0.13952303 0.001018739
0002b0 f7 33 75 3a 9f a7 01 3e fb fe 72 3e d8 21 68 39
       0.00093537517 0.12661599 0.2373008 0.00022137852
0002c0 fb dd 45 3e 31 b2 a0 39 48 5e 37 3c 7c 4c fe 3e
       0.1932296 0.0003065034 0.011191912 0.49667728
0002d0 83 ff 7c bc 4d 20 8c 3f cd 58 24 3f bd b1 aa 3f
       -0.015441778 1.0947357 0.64198 1.3335491
0002e0 f6 1f a5 3e 17 cf 45 3e b4 47 4a 39 68 93 15 3e
       0.32250947 0.1931728 0.00019290933 0.14607012
0002f0 70 59 aa 3e 83 9b b5 3e f4 d7 e1 3a 06 99 25 3e
       0.3327136 0.3547021 0.0017230497 0.16171655
000300 0d 7d 8c 3e a6 91 69 3a f6 7f cb 3d 47 14 3c ba
       0.27439156 0.0008909948 0.09936516 -0.00071746524
000310 00 d5 90 3e 7a 1b 1d 3f e1 65 c7 3d 32 b3 39 3e
       0.28287506 0.6137005 0.09736229 0.18134764

bn1.bias f4 [200]
000000 91 18 58 3a 28 ca 29 3a 29 21 08 ba a0 0f 1b ba
       0.0008243407 0.0006476962 -0.00051929295 -0.0005915109
000010 e3 db 11 3e 15 5c cc 3e 81 4d 6a bb 61 6d b7 b9
       0.14244036 0.39914003 -0.0035751762 -0.00034985974
000020 12 8d 2b bc ca 00 8c bd 17 81 b5 bc ee 49 51 3e
       -0.0104706455 -0.06836088 -0.022156281 0.20438358
000030 d4 ad 8c bb c6 eb b0 3e ca 5b 46 3c 3c 10 1c 3b
       -0.004293183 0.3455488 0.012106845 0.0023813387
000040 e9 1f c1 3a b4 fd 81 3e 0e d4 91 bd aa af fc bb
       0.0014734241 0.25388873 -0.07120524 -0.0077113705
000050 07 3e 92 3e 26 9d 12 bb 8d 6c c3 3a b8 6c 4f be
       0.28562948 -0.00223715 0.001490967 -0.20256317
000060 08 19 02 3a 8b e6 cb 3c 42 77 ab 3d 97 bd bc 3d
       0.00049628364 0.024890205 0.08372356 0.09215849
000070 37 63 9d bc 2a a7 c9 ba 39 ab dd 3a 94 c2 2a 3b
       -0.019212348 -0.0015384902 0.001691199 0.002605592
000080 a1 9a bd 3a 64 54 c2 3e 11 32 02 3b a1 03 6b 3b
       0.0014465639 0.3795501 0.0019866268 0.0035860317
000090 a1 0f 9d 3d 98 45 14 bc a3 3d 67 3e c1 76 05 3e
       0.076689966 -0.009049796 0.22582106 0.13033582
0000a0 6f cb d6 3c b2 db 0a 3e 73 0b 45 3d 46 bc 40 bb
       0.026220052 0.1356037 0.048106622 -0.0029409095
0000b0 93 a7 a2 b9 73 11 da 3a db ee 04 bd 26 a6 26 3a
       -0.000310239 0.001663728 -0.032454353 0.00063571555
0000c0 31 cc ce 3a 30 7c 16 3b 63 d8 b3 bc ee 58 95 3c
       0.0015777407 0.0022962205 -0.021953767 0.018230882
0000d0 f5 d5 0a bb 32 70 82 be fd 0a 97 3d d3 7e 48 3e
       -0.0021184657 -0.25476223 0.07375143 0.1957963
0000e0 3b 57 72 3d c1 55 24 bd b0 53 bc 39 b8 81 1f 3e
       0.05916522 -0.040120844 0.00035920506 0.15576828
0000f0 2c 43 40 3e bb 5c 33 be fc c2 8b 3a e7 d6 55 bd
       0.18775624 -0.17515843 0.0010662968 -0.0522069
000100 20 28 9a bb 38 31 26 bd a6 8d e2 3b c9 cd 61 3a
       -0.0047044903 -0.040574282 0.0069138585 0.0008613733
000110 e0 08 8c 3a 5a e3 23 3e 56 96 c8 3d b8 9e 90 ba
       0.0010683797 0.16004696 0.09794299 -0.001103363
000120 c6 f1 00 3d 78 8b 83 3a aa 93 08 bb c5 2b 72 bc
       0.031480573 0.0010036072 -0.0020839968 -0.014780943
000130 0c dc ff 39 39 1f f9 3d e3 68 c8 3e 89 e2 a8 3a
       0.00048801338 0.121641584 0.39142522 0.0012884896
000140 fb fb 2a 3d de b7 80 3d 29 f4 48 bd 33 2f 9f 3d
       0.041744214 0.0628507 -0.049060974 0.077726744
000150 2a 58 8f 3b 21 42 8b 3e 5c 44 13 3a 38 2a dc 39
       0.0043745236 0.2719889 0.00056177913 0.00041993125
000160 2d 1e 3e bb 6c 68 54 bd 42 a7 1c bd 3c 4b 1b 3e
       -0.0029009685 -0.051857397 -0.038245447 0.15165418
000170 7b 5e 77 3e 39 ff f2 bb 4f 96 bc 3c a6 8f 83 b9
       0.24157135 -0.007415679 0.023020891 -0.00025093294
000180 65 9f 2b 3d 05 cc 8c 3d 08 7b a7 ba 90 3f b0 3c
       0.041900057 0.06874851 -0.0012777755 0.021514684
000190 9f 3f b7 bb c8 20 2e 3e 37 28 98 ba 7f 99 1f 3d
       -0.005592301 0.17004693 -0.0011608665 0.038964745
0001a0 b0 3b 37 bb a3 d2 bb 3b fe b9 8f 3c 7c b4 d2 b8
       -0.002795916 0.005731897 0.017544743 -0.00010047198
0001b0 5e a9 ee 3c 18 42 7f 3e 97 e1 e2 3e d5 8e 18 3c
       0.029133495 0.24927557 0.44312736 0.009311398
0001c0 03 8b 12 3b 3c 00 24 bb 40 5f 38 3b ae 6e 22 3d
       0.002236069 -0.0025024554 0.0028132945 0.039656334
0001d0 1a f3 31 3d fe 20 4e 3c 68 77 8e 3e df 89 a5 3d
       0.04344473 0.012581108 0.27825475 0.080829374
0001e0 a3 ce b0 bb de 40 b4 3c 61 a4 15 3e c9 74 56 bd
       -0.0053957268 0.022003587 0.14613487 -0.05235747
0001f0 a9 60 6c b9 3c f6 54 3d e0 e2 4b bb c7 9f 98 3a
       -0.00022542723 0.05199264 -0.003111057 0.0011644297
000200 01 bb 10 3c 4f 29 ae 3c 51 3f 2b ba fa a4 08 bc
       0.008833648 0.021259932 -0.0006532567 -0.008340115
000210 6b aa de 3b 94 ad 72 3d ad fc 53 3e 32 fc 18 bc
       0.0067952177 0.05924757 0.20701857 -0.009337472
000220 7e 5a 2e bc de b2 9a b9 21 b8 f2 b9 ee 1c 6f bb
       -0.010641692 -0.00029506435 -0.00046295024 -0.003648575
000230 95 92 ff ba ff 29 25 3c 90 aa 11 3e 3d 7f 3b 3b
       -0.0019498641 0.010080813 0.1422522 0.0028609775
000240 7b 36 01 be 48 7e 3a 3b f3 eb fe 3e 9b f5 ad 3e
       -0.12618439 0.0028456617 0.4978939 0.33976445
000250 1d 12 08 3f 38 a9 38 3e 9c ff fe b9 71 13 f9 3d
       0.5315264 0.18033302 -0.000486371 0.12161911
000260 ba cb 1c 3d 25 bd 47 3e e6 ca 8c b9 38 da 52 3a
       0.038280226 0.19505747 -0.00026854052 0.00080433814
000270 c2 0e 58 ba 8e 3f 1f 3a 2e c4 e4 3a 29 b0 78 bb
       -0.0008241945 0.0006074839 0.0017453486 -0.0037946797
000280 50 71 60 3b a4 54 10 bb 5f 76 56 bb c5 50 c4 3e
       0.0034247227 -0.0022023106 -0.0032724363 0.38342872
000290 0b d4 be 3d d8 49 d0 b9 33 d4 8e b9 3d 4a 00 3d
       0.09317788 -0.0003972787 -0.0002724245 0.0313208
0002a0 56 8c 8b 3c d6 49 2d 3d 50 4e 5a 3c aa 74 c5 3a
       0.01703469 0.042306744 0.013324335 0.0015064676
0002b0 38 80 e1 ba 8b 50 41 bd e3 ad 65 3c 84 e1 c9 ba
       -0.001720435 -0.047195952 0.014018509 -0.0015402292
0002c0 a9 00 44 3d 88 29 c8 37 89 5c 24 3b 15 e8 19 3e
       0.047852192 2.3861197e-05 0.002507957 0.15029939
0002d0 44 03 a5 ba f6 76 4d 3e 48 6d 90 3e ca 56 9d 3e
       -0.0012589474 0.20064911 0.28208375 0.30730277
0002e0 68 07 80 3c 05 b7 e6 3c 03 ce dd 39 94 ca 90 bd
       0.015628532 0.028163442 0.00042305895 -0.07069889
0002f0 70 4a 38 3e 47 ab 87 bc 2f 86 95 ba 03 18 a6 3d
       0.17997146 -0.016561164 -0.0011407788 0.081100486
000300 d7 f4 0c 3e 2c ef 36 bb 19 9c 9f bc 11 37 24 bb
       0.13765274 -0.0027913554 -0.019483613 -0.0025057236
000310 64 82 bf 3d 46 08 16 3e f5 79 74 3e 7c dd 3f 3d
       0.09351042 0.14651594 0.23874648 0.046842083

bn1.running_mean f4 [200]
000000 e6 3b 48 40 dd cf 4d 3c bc 4d b7 3e d4 8b 33 3f
       3.128656 0.0125617655 0.35801494 0.70135236
000010 37 92 3a 41 ba bd be 41 7e e6 2d 3d c7 58 0e 3e
       11.660697 23.84264 0.042456143 0.13901053
000020 c2 48 1a 40 8e e6 19 41 c7 3a 83 3f a1 af 1e 41
       2.4106908 9.618788 1.0252312 9.917878
000030 56 f4 d8 3e a3 37 52 41 2e 02 f0 3f e9 d7 98 3e
       0.42373914 13.138583 1.8750665 0.29852226
000040 af 49 24 3f de 5a 97 41 f7 6b 90 40 d6 89 fb 3e
       0.6417493 18.919369 4.5131793 0.49128598
000050 2d a4 26 3f 3a 52 33 3f b7 13 8f 3f 71 6f 9c 41
       0.6509426 0.7004734 1.1177891 19.554415
000060 7c d2 9b 3f e5 93 11 3f 09 05 3e 41 9d e9 b4 3e
       1.217361 0.56866294 11.876229 0.35334483
000070 83 c5 06 40 3e a1 41 3f 16 8e 8b 3f 3d fd 04 3f
       2.1058052 0.7563666 1.0902736 0.5194891
000080 66 1f cf 40 eb 25 b5 40 56 e7 8f 3e d1 25 4e 41
       6.472583 5.6608787 0.28106183 12.8842325
000090 61 c3 a8 3f f7 d2 59 3e c4 89 f2 40 aa 71 af 3f
       1.3184625 0.21271883 7.579317 1.3706563
0000a0 7a 22 15 3f b4 b2 17 41 81 23 0d 3f 96 a3 fc 3e
       0.5825573 9.481129 0.551323 0.49343556
0000b0 04 00 00 00 5c 55 bc 3d 8b c3 87 40 d7 d1 ee 3d
       6e-45 0.091959685 4.24262 0.116611175
0000c0 71 69 5a 3d 09 7d 35 3f f0 c3 9b 3e d5 16 fd 3f
       0.053323213 0.70893914 0.30422926 1.9772593
0000d0 8c d8 36 41 f4 bf b0 3e 16 8f 31 41 9d cf 78 40
       11.427868 0.3452145 11.097433 3.8876717
0000e0 b7 99 40 3f 9f f5 d5 3e 47 9a 7c 3d e8 ea bc 40
       0.7523455 0.41788957 0.061670568 5.903675
0000f0 29 64 d5 3d ee f1 a1 40 7a 5f 31 41 28 d6 29 3f
       0.10419495 5.0607824 11.08581 0.663424
000100 06 dd 02 40 97 d2 2b 40 2a f7 95 3e 60 f9 02 3f
       2.0447402 2.6847284 0.29290134 0.51161766
000110 5f 74 27 41 d9 a9 a5 3f 3b 78 d9 3e dc f7 6b 3f
       10.465911 1.2942458 0.4247454 0.9217508
000120 99 c3 42 40 26 87 be 3e 21 c8 a0 3e 1f 08 f7 3e
       3.0431883 0.37212485 0.31402686 0.48248383
000130 37 90 58 3e 0a 5b a5 41 9b 02 1a 40 9d 86 7e 3e
       0.21148764 20.669453 2.406409 0.24856038
000140 3f be 14 40 df 57 bb 3e 68 a0 1f 41 b7 58 6f 40
       2.3241117 0.36590478 9.976662 3.7397897
000150 2c d6 84 3e c7 38 b3 3d 25 f5 98 3e 17 c2 26 3f
       0.2594465 0.08751064 0.2987453 0.6513991
000160 fb 94 9f 3d d2 2e 8d 3f cb dc 24 40 4b cc 8b 3e
       0.07792088 1.1029913 2.5759761 0.273043
000170 e4 c4 23 41 5b 94 a4 3e cf 8f 09 40 29 12 11 40
       10.235569 0.32144436 2.1494024 2.2667334
000180 11 56 50 40 55 35 c9 3f 9f 77 dd 3e a4 37 23 3f
       3.255253 1.5719401 0.43255326 0.63756776
000190 04 00 00 00 01 c3 04 41 7e a3 01 3e b2 95 b5 3f
       6e-45 8.297608 0.12660024 1.4186308
0001a0 9e 6e 19 41 a6 7b 06 3f ad e4 f5 40 06 a9 f8 3e
       9.589506 0.5253242 7.6841645 0.48566455
0001b0 c3 00 c1 3f 95 f9 54 41 0b 14 31 41 06 8d 3e 3f
       1.5078357 13.310933 11.067393 0.74433935
0001c0 28 0a 98 3d d6 e3 18 3e aa 69 a4 3b 31 27 9c 3e
       0.07423812 0.14930663 0.005017479 0.3049865
0001d0 e7 cd f9 40 f0 7f c4 3d 74 10 75 40 1a 49 06 41
       7.8063846 0.09594715 3.8291292 8.392847
0001e0 08 e2 99 1a c3 55 11 3f d7 6a df 3f 5c 1a 44 40
       6.364449e-23 0.56771487 1.745448 3.0641088
0001f0 33 d0 35 3e 30 6b db 3e 78 ce 21 3f 8d 7d 79 41
       0.17755203 0.42855215 0.6320567 15.593152
000200 72 94 8c 3e 4b 3b ba 40 8a dd eb 40 8b 93 63 40
       0.27457005 5.819738 7.3707933 3.5558803
000210 db 40 20 40 36 98 a7 41 96 10 b6 40 f8 da 9f 40
       2.5039585 20.949322 5.6895247 4.9954796
000220 77 46 00 3f be 67 13 41 1b 69 c8 3d 8a d2 28 40
       0.5010752 9.212828 0.09785672 2.6378503
000230 ce ae 65 41 d9 39 6f 40 9a 26 0b 41 4b e9 dc 40
       14.355177 3.7379057 8.696924 6.903478
000240 5a de 4c 3f 77 85 81 3e c3 89 04 41 4c ea 28 3e
       0.8002678 0.25297138 8.283633 0.16495627
000250 6b 5b 74 41 64 d6 08 41 28 64 ff 3e 3d f6 53 40
       15.272319 8.552341 0.498811 3.3119042
000260 01 0c 9a 3e 58 eb cd 40 11 a6 82 40 b3 f6 bd 3e
       0.30087283 6.4349785 4.082772 0.3710228
000270 b0 23 59 3e 6b ed 93 41 51 2e f9 40 04 00 00 00
       0.2120502 18.490927 7.786904 6e-45
000280 ba 0d b7 3f cf 3f ba 3b 4a 41 25 3f 39 c6 3a 41
       1.4301064 0.005683876 0.6455275 11.673394
000290 a0 bb 82 3e 09 d3 3d 3f 73 5c c1 3d 50 1f b6 3e
       0.25533772 0.7415014 0.094414614 0.35570765
0002a0 ce 61 31 3f b4 57 f2 3e ab 3f 5d 40 5b 8f 60 41
       0.69289863 0.47332537 3.457011 14.034999
0002b0 fe 22 38 41 ff 46 20 40 38 f7 6c 3f bf 91 4a 41
       11.508543 2.5043333 0.92564726 12.660583
0002c0 bb a7 ab 40 d6 de 29 41 93 db aa 3e f2 b5 63 3e
       5.364225 10.616903 0.33370647 0.22237375
0002d0 b5 73 7c 3f ac 88 dc 3e b1 fb 16 41 cf 81 b9 41
       0.98614055 0.43073022 9.436448 23.188383
0002e0 3b 00 31 41 32 47 75 40 29 59 47 41 7a 4c 0c 40
       11.062556 3.8324704 12.459268 2.1921678
0002f0 06 5e af 41 8d 5e 9b 3f 34 31 7c 3e de 5b 66 41
       21.92091 1.213823 0.24628145 14.3974285
000300 07 47 72 3f 25 ee 0e 3f 8e c3 23 41 a5 52 76 3d
       0.9463963 0.5583213 10.235243 0.06013741
000310 3e 21 74 3f a3 b2 5e 3e 02 22 33 3f 1e 5a 3c 3f
       0.95363224 0.21747832 0.69973767 0.7357501

bn1.running_var f4 [200]
000000 2e 91 83 41 3e 78 54 3d c3 22 97 40 b0 05 9f 40
       16.445889 0.051872484 4.7229934 4.9694443
000010 e1 f3 54 43 b8 0b 61 44 f2 98 4c 3e ba 65 94 3f
       212.95265 900.1831 0.19980219 1.1593544
000020 ef c6 78 41 37 d9 1b 42 7b 5e 79 41 e9 ba 94 42
       15.548568 38.962124 15.5855665 74.36506
000030 6d ee 02 40 21 0e 91 43 8f 8b f6 41 cd 5c 18 40
       2.0458024 290.11038 30.818144 2.380664
000040 0b 92 e5 40 8c 63 0a 44 fa 33 a4 42 f5 17 9e 3f
       7.1740775 553.5554 82.10152 1.2351061
000050 db 65 7d 40 b5 e4 48 40 67 a6 75 41 51 19 14 44
       3.9593418 3.1389592 15.353126 592.39557
000060 37 8d cf 40 cc f3 d5 40 50 e9 a2 42 82 d6 8a 3f
       6.485988 6.6860104 81.45569 1.0846713
000070 78 7f cc 41 35 29 0a 41 5b b6 1e 41 83 23 72 40
       25.56224 8.63506 9.91952 3.7834175
000080 b6 71 81 42 9b fb 53 42 3b 51 20 40 03 b0 59 42
       64.72209 52.99571 2.504958 54.421886
000090 70 32 66 41 ac ac cc 3f e9 7f 77 42 c4 ac ff 40
       14.387314 1.5990195 61.874912 7.9898396
0000a0 a5 65 0d 40 90 78 e6 42 9f bc 12 40 7a 63 71 40
       2.209329 115.23547 2.2927625 3.7716966
0000b0 04 00 00 00 ab 5f 25 3f b7 22 9e 42 9c 70 5d 3f
       6e-45 0.645991 79.0678 0.86499953
0000c0 cc 58 5e 3e 6e a3 fc 40 54 7a 31 40 2d 58 51 41
       0.21713561 7.89495 2.7730913 13.084027
0000d0 1e 3f c7 42 7a 7e fe 3f 0e 37 d4 42 a7 52 b9 41
       99.623276 1.9882348 106.10753 23.165358
0000e0 19 f3 dd 40 77 d4 3b 40 67 83 d5 3e ce 4c 8e 42
       6.935925 2.9348428 0.41701815 71.15001
0000f0 6b 4c 15 3e 03 80 3f 42 a5 b0 a0 42 27 d6 9b 40
       0.14579932 47.87501 80.34501 4.8698916
000100 59 15 91 41 74 13 36 42 04 09 5c 40 05 50 98 40
       18.135424 45.518997 3.4380503 4.759768
000110 00 be 96 42 f8 e9 11 41 d7 f4 49 40 aa 28 8b 40
       75.37109 9.119621 3.1555688 4.348714
000120 01 a3 88 41 4a 58 92 40 23 6d d7 3f 6f 5d 8e 40
       17.079592 4.5732775 1.6830181 4.4489055
000130 9c a6 c8 3f 9e 03 2a 44 fe 86 86 40 66 77 ee 3f
       1.5675845 680.0565 4.2039785 1.8630188
000140 3c 83 82 41 8e ba 8f 40 5f c8 f6 42 00 13 cb 42
       16.31408 4.491523 123.39135 101.53711
000150 34 56 26 40 cf 15 60 3f 3a b3 88 3f a0 5c 89 40
       2.5990114 0.8753328 1.0679696 4.292557
000160 fe a9 b5 3e 52 ea 15 41 7a a0 39 42 a6 9f 0c 40
       0.35481256 9.369707 46.406715 2.1972442
000170 99 1c 24 43 fe 04 41 40 6f e5 98 41 7b 9c de 41
       164.11171 3.0159297 19.112028 27.826406
000180 51 7c e8 41 1c 87 94 40 1b e9 1c 40 67 b8 54 40
       29.060701 4.641493 2.4517276 3.323755
000190 04 00 00 00 5e 4b 7e 42 f9 d7 85 3f ba e1 cf 40
       6e-45 63.5736 1.0456535 6.4963045
0001a0 e5 5c a7 42 ac 15 cd 40 d1 b5 6f 42 66 15 7c 40
       83.681435 6.4088955 59.927555 3.938806
0001b0 6d c1 f6 40 9d bc 66 43 31 ed 55 43 24 a4 97 40
       7.7111115 230.73677 213.92653 4.7387867
0001c0 67 06 a0 3e ff 01 9c 3f 47 3f e4 3c 18 dd 42 40
       0.31254885 1.2188109 0.027862204 3.0447445
0001d0 d2 5d 0e 43 c5 92 d1 3e b7 b6 64 41 2a 83 cf 42
       142.36649 0.4093229 14.294608 103.75618
0001e0 16 8f 38 1a 80 5e c8 40 5a 83 97 40 46 1b e6 41
       3.8165892e-23 6.2615356 4.734784 28.763317
0001f0 a6 bb 53 3f 0a 86 09 40 95 f1 95 40 79 ad f2 42
       0.82708204 2.148806 4.68574 121.33881
000200 7a 60 1d 40 64 4c ee 41 69 44 f5 41 78 f5 28 42
       2.4590135 29.7873 30.658403 42.239716
000210 9f ef b6 41 81 9e 2c 44 b1 94 4d 41 52 14 83 41
       22.867002 690.4766 12.848802 16.384922
000220 41 6d 8b 40 ba bd 7c 42 cc 3b 13 3f 39 4d 2e 42
       4.3570867 63.18528 0.5751312 43.575413
000230 32 e9 93 42 4a d9 96 41 33 e6 c8 42 23 7e 4d 42
       73.95546 18.856098 100.44961 51.37318
000240 0a ed 98 40 bb 20 1c 40 9e 8f f3 42 7f a0 a3 3f
       4.7789354 2.4394977 121.7805 1.2783355
000250 45 9c ba 43 29 a0 a8 42 c1 53 d3 40 54 1e 01 42
       373.22086 84.31281 6.603974 32.279617
000260 c4 29 20 40 9c 26 3c 42 33 94 b6 42 1a 58 41 40
       2.5025492 47.037704 91.28945 3.0210023
000270 3e e6 ed 3f f7 c9 5f 43 ea 39 00 43 04 00 00 00
       1.8585889 223.78893 128.22623 6e-45
000280 1f b8 5f 41 0f d1 28 3d d1 a0 a6 40 02 99 61 43
       13.982451 0.041215 5.207131 225.59769
000290 c6 72 ce 3f 6d 37 f7 40 31 0d b5 3e 59 ed 71 40
       1.6128776 7.725516 0.35361627 3.7801116
0002a0 cd 19 a5 40 3e 99 67 40 79 c0 f3 41 dd 29 a4 42
       5.1593995 3.6187282 30.46898 82.081764
0002b0 83 82 78 42 03 fc c9 41 0c af 0a 41 7e d1 36 43
       62.127453 25.248053 8.667736 182.81833
0002c0 37 6a 18 42 8b 0a 80 42 82 83 14 40 d5 e0 34 3f
       38.103725 64.02059 2.3205266 0.70655566
0002d0 a5 3b 39 41 5e 8a 78 40 fc 48 c9 42 73 ed 5e 44
       11.577062 3.8834453 100.64255 891.71014
0002e0 ac ac 1f 42 d4 b7 94 41 b4 c5 3a 43 15 4b ca 41
       39.918625 18.58976 186.77228 25.286661
0002f0 af e9 aa 43 c0 ab 8a 40 91 41 fc 3f 33 b8 53 43
       341.82565 4.3334656 1.9707509 211.71953
000300 cf ed a8 40 c6 cd 8c 40 48 a7 d5 42 a1 ec bd 3e
       5.2790294 4.400119 106.82672 0.37094596
000310 51 48 17 41 17 4e 8b 3f 03 1f c8 40 3d d3 d6 40
       9.455155 1.0883206 6.2537856 6.713286

fc2.weight f4 [100, 202]
000000 c1 b2 29 bd fc 2c 09 3d 75 02 f8 bd e6 c7 e2 bd
       -0.04143024 0.033490166 -0.12109844 -0.11073284
000010 be d7 42 be 83 3e 51 3d b7 84 56 3d d4 50 fe 3c
       -0.19027612 0.051085006 0.05237266 0.031044401
000020 ce 18 3b bb 5c 92 f4 bc 98 2e 87 bc f4 70 1b 3c
       -0.002854872 -0.029854946 -0.01650171 0.009487379
000030 e7 1c 16 3d 77 9a 03 bd 3a 6f d4 bd 29 83 80 bc
       0.036648657 -0.03212973 -0.10372777 -0.015687542
000040 cd 3b 9f 3d eb b1 8f bd cf 57 00 be 15 05 f1 bd
       0.07775078 -0.07016357 -0.12533496 -0.117685474
000050 5d 90 dd bd 8b 31 39 3d 76 13 81 3d df 5d 9d 3d
       -0.10818551 0.045213263 0.0630254 0.0768392
000060 df 34 35 be 13 70 17 bd 60 96 06 3c 8c 2f 94 bd
       -0.1769595 -0.036972117 0.008214563 -0.07235631
000070 14 0e c2 3d 41 24 8c bd b3 34 fa 3d cc c5 46 3d
       0.094753414 -0.068428524 0.12217083 0.048528478
000080 ed 44 05 bd 1d ff 10 be f4 d3 0b bc 4f 2a 0c 3b
       -0.032536436 -0.14159818 -0.00853442 0.0021387523
000090 02 6b f5 bd 17 5f d2 bb 7c b6 a3 3c 06 c8 d2 3c
       -0.11983301 -0.006420027 0.019984476 0.025730144
0000a0 c8 3a 8b bd 49 2d 4e be c2 1a a4 3d ed 8e 9e bc
       -0.06798321 -0.20134462 0.08012916 -0.019355262
0000b0 52 52 9c bb 75 fd 86 bd 55 56 99 3d 6f b9 5a bd
       -0.0047705555 -0.06591312 0.0748717 -0.0533995
0000c0 ee f4 aa bc 0e 03 8d 3d bf 89 1c 3e 1a a8 67 bc
       -0.020868745 0.06885348 0.15286921 -0.0141392
0000d0 83 1b 9e bd 39 45 8c 3e f7 07 bb 3b d6 21 c7 bc
       -0.07720091 0.27396563 0.0057077366 -0.024308126
0000e0 af bb ab bd 9c d0 99 bc 03 7d 6b 3d 67 e4 cd bd
       -0.08385407 -0.01877623 0.057492267 -0.1005333
0000f0 cd 78 20 bd a5 55 21 3d 17 cb 1f bd a5 ac ce bc
       -0.039177705 0.039388318 -0.03901204 -0.025228808
000100 ca 74 d3 3d 0a 60 2d 3d f5 86 7f 3d 3f 88 af bd
       0.1032501 0.042327918 0.062384564 -0.08570909
000110 90 cb 63 bc 1e 33 8f 3c cd ab 0c bb 46 7e b7 3c
       -0.013903514 0.01748043 -0.0021464706 0.022399079
000120 55 a2 18 3d 3d 87 04 3d 12 18 fa bd b5 44 ab bc
       0.037264187 0.032355536 -0.12211622 -0.020906786
000130 59 e1 ef bc e6 a4 d5 bd 29 b0 5f 3b 1f 58 e2 bd
       -0.029282259 -0.104318425 0.00341321 -0.11051964
000140 b2 52 25 3e 9c 0e d2 bb 3b 5c 85 36 f1 28 78 be
       0.16144827 -0.006410433 3.974446e-06 -0.24234368
000150 5c 69 3a 3d e5 72 32 be a0 70 74 3d dd e1 56 3d
       0.045510635 -0.17426641 0.05967772 0.052461494
000160 03 9f 61 bd c0 65 20 3d e6 89 2b 3e bb cf 01 be
       -0.055083286 0.039159536 0.16751823 -0.12676899
000170 77 33 e0 3c ae 22 c0 3c 71 4a ac 3d 83 1a 29 3d
       0.02736829 0.023454037 0.08412636 0.04128505
000180 06 8a 59 bc 3a 12 cb 3a e2 ca e0 3b ef 5e 05 bd
       -0.013277536 0.0015493103 0.006860123 -0.03256124
000190 53 06 87 3c 02 5e df bd 59 ad f7 bd 53 53 96 3c
       0.016482508 -0.109066024 -0.1209361 0.018350279
0001a0 2c 2f 33 be c0 96 b8 bd 3f d3 9f bd b8 7d 7e ba
       -0.17498463 -0.09013128 -0.07803964 -0.00097080646
0001b0 59 91 8a 3d 70 c7 cf bc 32 43 48 3d 72 a4 70 bd
       0.06766004 -0.025363654 0.048892207 -0.058750577
0001c0 f3 58 b3 bd 54 d7 9a 3d ad 4c b1 bc 73 00 25 3c
       -0.087572 0.07560602 -0.021643007 0.010070908
0001d0 d6 9b c2 bd 19 33 07 bd a5 74 22 3d 9f 88 3e bd
       -0.095023796 -0.033007715 0.039662022 -0.04651701
0001e0 cf ab bd bc 32 54 4a be b2 c0 b3 3c ec 2b 54 bd
       -0.023153214 -0.1975868 0.02194247 -0.0517997
0001f0 5d d9 b3 3d 5e 34 5a 3e da e1 8b bd dc 15 3f 3c
       0.08781693 0.21309039 -0.06830187 0.0116629265
000200 f8 15 1b be d2 fa 3b bd 83 b4 be bd 50 90 d0 3d
       -0.15145099 -0.045893498 -0.09311774 0.101837754
000210 02 93 57 3d 46 36 93 bd 8d ce ac bc ad ee 0a be
       0.052630432 -0.07188086 -0.021094585 -0.1356761
000220 7a f5 02 bd 22 9f a7 bd da d4 5b 3d 9e 78 50 3d
       -0.031972386 -0.08184649 0.053669788 0.05089628
000230 2e 55 78 3d 56 ed 15 bd 73 d8 0d bb 19 98 71 bb
       0.06062811 -0.036603294 -0.0021643906 -0.003686434
000240 09 1a d7 bd 3f 1b b6 3c 64 93 db bc 91 39 2f be
       -0.10503013 0.022229789 -0.02680368 -0.17111804
000250 6b c0 8d 3d 30 b3 9f bd 67 62 e7 bd 15 7d 35 be
       0.069214664 -0.07797849 -0.11298066 -0.17723496
000260 7c 72 2b bd e3 a8 66 3d bc 9c 04 bd ea d1 a7 bc
       -0.041857228 0.056313407 -0.032376036 -0.020485837
000270 2c a7 4c bd 1a 8b 37 3e 0f 43 d0 bc 0e 72 be bd
       -0.049964115 0.17924157 -0.025422601 -0.09299098
000280 8a 37 c3 bc b0 1f 87 3c 7e 47 ea bc c7 aa 34 3d
       -0.023830194 0.016494602 -0.028598543 0.04410818
000290 f6 c8 76 bd db 97 92 bd 5d 6b 11 3d 54 43 ff 3c
       -0.060250245 -0.071578704 0.03550278 0.031160034
0002a0 2e 74 87 bd 98 cb 4a bc d7 6e 17 3d 38 e6 84 bd
       -0.066139564 -0.012377642 0.03697094 -0.06489223
0002b0 07 a5 83 3d 0f ca 42 3d 31 e7 ab bd da 04 0e be
       0.06427961 0.04755598 -0.08393706 -0.13869038
0002c0 ce f5 28 3c fa 58 2d be 55 50 9a bd cb 57 e1 bd
       0.010312511 -0.16928473 -0.07534853 -0.11003073
0002d0 3e fe 4c bb ed eb a8 bd 1d 6b 62 bd ba f7 de bd
       -0.003127947 -0.08248124 -0.055277932 -0.10887094
0002e0 3d 24 a4 3d 7f 18 88 bd 95 15 e5 bc ad c8 be bd
       0.080147244 -0.06645297 -0.027964393 -0.093156196
0002f0 d1 84 c0 bd d5 d6 8b bb c8 f9 fd bd dc 87 e6 3c
       -0.09400333 -0.0042675533 -0.124011576 0.028140955
000300 b5 b8 9e bd 6a 4e 84 bd 98 42 af bd a6 27 ec bd
       -0.07750074 -0.06460269 -0.085576236 -0.11531
000310 0e 90 80 3d 0e 71 61 bd 16 a2 8c be 05 f8 24 3c
       0.06277476 -0.055039458 -0.27467412 0.010068898
000320 1e 84 41 3d 3b fb 92 3d e8 e8 9a bb 93 1c 58 3c
       0.047245137 0.07176825 -0.0047274716 0.013190406
000330 1d 6b 54 ba a2 b8 f7 bb 38 47 83 be 8d 2e a6 3d
       -0.00081031193 -0.0075598517 -0.25640273 0.081143476
000340 b9 fb 26 3c a6 b9 0a bd 51 34 ab be 2a 1b 33 be
       0.010191851 -0.033868454 -0.33438352 -0.17490831
000350 24 96 5a 3e d7 30 93 bc 0b 30 09 3e 17 08 10 be
       0.21346337 -0.017967625 0.13397233 -0.14065586
000360 26 aa 2c bf 47 77 1f 3e d4 5e 60 bc 83 c0 87 be
       -0.67447126 0.15572844 -0.013694484 -0.26514062
000370 ce fc 88 3e 58 be 86 3e 55 8f 41 be 7c 07 d4 3c
       0.26755375 0.26317096 -0.18902333 0.025882475
000380 9c 62 94 bc 6e e5 38 3c 2d 4f a0 ba f7 6a 9f bd
       -0.018113427 0.011285169 -0.0012230627 -0.07784074
000390 0c 7a 52 3e 02 ba 9e 3d 4f d3 3a 3b cc 4f e0 bb
       0.2055437 0.07750322 0.0028507297 -0.00684545
0003a0 1b dd 58 bc 7b 11 39 bc 59 36 46 bb d8 57 99 be
       -0.013236309 -0.011295672 -0.0030244796 -0.29949832
0003b0 4b c3 cd bc 92 e7 42 bd e5 bf ca be 5e 8d a0 3d
       -0.025117537 -0.047584124 -0.3959953 0.07839464
0003c0 8d de e6 3d d5 a7 0f 3d d1 7e 8e bb 4c 9f b7 3c
       0.11272917 0.035072166 -0.004348614 0.022414826
0003d0 3f 88 91 bd d6 f7 f6 3d a8 4a 93 bc cc d3 0d bb
       -0.07106065 0.1205899 -0.017979935 -0.0021641133
0003e0 83 29 92 3e b7 d3 97 3b ca 35 e4 bc d4 c9 e6 3b
       0.28547296 0.0046333927 -0.02785768 0.0070431028
0003f0 06 c7 d4 bd d6 40 f8 be 08 c8 5e 3c 6b 46 5f 3e
       -0.10389523 -0.48486966 0.013597496 0.21804206

fc2.bias f4 [100]
000000 11 97 24 be 6c fc 87 be da 75 6c be 6f 20 2a be
       -0.16073252 -0.2655977 -0.23091832 -0.16613935
000010 80 e5 9c be 78 30 53 be c5 31 a5 be b1 d9 84 be
       -0.30643845 -0.20623958 -0.32264534 -0.25947335
000020 58 9b aa be 08 23 a0 be 89 a5 77 be c3 e9 4f be
       -0.33321643 -0.31276727 -0.2418424 -0.20304017
000030 56 d4 cc bd 91 d3 e1 be 42 f1 af be b9 ec 84 be
       -0.10001437 -0.44106725 -0.34363753 -0.25961855
000040 55 32 83 be bd 38 d3 be 91 d4 d7 bc 2f 15 01 be
       -0.25624338 -0.41254225 -0.026346477 -0.12605737
000050 83 c1 21 be 7c 55 58 be b5 ff 2d be 4a a7 c9 be
       -0.15796475 -0.2112636 -0.16992076 -0.39385444
000060 fc 4b 73 be 23 6c be be 1b 85 20 be 55 d4 0b 3e
       -0.23759454 -0.37191877 -0.15675776 0.13655217
000070 59 5a ae be 40 e1 a3 be d0 6d 52 be d8 00 ae be
       -0.34053305 -0.3200779 -0.20549703 -0.3398502
000080 d7 a7 8b be 53 66 70 be d4 46 73 be fe f0 8b be
       -0.2727649 -0.23476534 -0.23757488 -0.273323
000090 fe f3 b5 bd 79 d2 6c be c1 86 65 be a0 22 b8 be
       -0.088844284 -0.23127164 -0.22414686 -0.35963917
0000a0 b9 b9 39 be 8b 22 a8 be 7b 15 8c be 0f e5 7e be
       -0.18137254 -0.32838854 -0.27360138 -0.24892066
0000b0 0d 02 a5 be b2 07 8b be a7 8e 88 be 7a 69 58 be
       -0.32228127 -0.2715431 -0.26671335 -0.21133986
0000c0 68 9e 95 be 27 cb a0 be 90 b4 5c be 23 a3 34 be
       -0.29222417 -0.31404993 -0.21553254 -0.17640357
0000d0 38 96 86 be 81 11 ca be 50 22 44 be 2d c8 29 be
       -0.26286483 -0.3946648 -0.19153714 -0.16580267
0000e0 12 f6 86 be 7c c8 e8 bd 95 69 4b be 07 0d 3e be
       -0.26359612 -0.11366364 -0.19864495 -0.18559657
0000f0 5f a7 36 be 59 ba ae be c9 51 c2 be 1a 85 4e be
       -0.17837285 -0.34126547 -0.37953022 -0.20167962
000100 df a1 5d be 8d 3d 86 be cf 1e 99 be 6d 57 9d be
       -0.2164378 -0.26218835 -0.29906318 -0.30730763
000110 16 5d eb bd 75 e7 82 be ac 18 cd be e8 07 d2 be
       -0.11492364 -0.25567213 -0.40057886 -0.41021657
000120 46 5e 95 be 0d 2d 06 3e 84 cc a7 be d3 e1 3b be
       -0.29173487 0.13103123 -0.3277322 -0.18347864
000130 51 f9 f8 bd 3f aa 7a be 8b 57 88 be 3d a6 6c be
       -0.12156928 -0.24479006 -0.2662929 -0.2311029
000140 b0 3a 75 be 62 ee f6 bc 9f a8 44 be f9 9f 75 be
       -0.23948169 -0.030142967 -0.19204949 -0.23986806
000150 d1 fc 99 be 2d d5 ac be 80 06 a0 be 06 04 7c be
       -0.30075696 -0.3375639 -0.3125496 -0.2461091
000160 a8 53 eb be 39 da 96 be dd ec 1d be 4e b8 c9 be
       -0.45962262 -0.29463366 -0.15422387 -0.39398426
000170 b4 81 90 be 21 c4 6e be f0 6a 13 be 35 5f 92 be
       -0.28223956 -0.23317005 -0.14396262 -0.28588262
000180 2d 11 35 be 4f b6 6e be e5 4a e0 be 44 c6 67 be
       -0.17682333 -0.23311733 -0.4380714 -0.22634226

fc3.weight f4 [1, 100]
000000 52 a1 0f 3c eb 47 9b bd d2 e9 01 bd bf 2b 0a bc
       0.008766489 -0.07582077 -0.03171713 -0.008433281
000010 9f c6 28 bc 58 67 8c bb 4b 82 95 bc ff d2 b5 3c
       -0.010301261 -0.0042847805 -0.018250605 0.022195337
000020 76 80 45 bb 27 3f df bc 05 50 15 3b de 82 d9 bc
       -0.0030136383 -0.027251793 0.002278329 -0.02655166
000030 e2 6c fe bc 9a c2 d3 3c 67 11 ce 3b 61 f3 65 ba
       -0.031057779 0.02584963 0.0062886956 -0.0008771923
000040 3a db 29 3c 68 72 83 3d 65 3a 10 3d cb ad 57 bc
       0.010367209 0.06418306 0.03521194 -0.013163994
000050 8f 03 a3 bc c4 f7 3d bc a9 84 cd 3b e8 94 53 bd
       -0.019899158 -0.011594716 0.006271918 -0.05165568
000060 8c 5f 22 3d 48 17 5b bc c0 c7 f9 3c 83 5d fc bc
       0.0396419 -0.01337225 0.030490756 -0.030806309
000070 9e 0d 16 3c fb 26 f5 bc ba 68 00 bd 3d 33 bc ba
       0.00915852 -0.029925814 -0.031349875 -0.0014358532
000080 33 b6 a8 3c 72 fa fe 3c a3 b5 44 bc 06 40 fc 3c
       0.020594692 0.031125281 -0.012006196 0.030792248
000090 75 ea 39 3d 03 d1 41 3c 18 b0 8b bc ba 2a af 3b
       0.04538961 0.011829617 -0.017051741 0.0053456696
0000a0 59 75 79 bc 37 99 89 3d 89 46 a2 3c 9a 3f 62 bc
       -0.015225732 0.067186765 0.019809024 -0.013809109
0000b0 47 ea 06 bc f1 ad 1e 3d 6a 20 20 bd ae 59 3a 3d
       -0.008234567 0.038740102 -0.039093412 0.04549568
0000c0 d4 e0 08 bd 84 45 2e 3c 33 9a c2 3c 58 81 a3 bc
       -0.033417538 0.010636691 0.023755169 -0.019959137
0000d0 ff 96 31 bc 3c 68 93 bb 22 c1 91 3c 5e 76 92 bd
       -0.010839223 -0.0044985097 0.017792288 -0.07151483
0000e0 f6 4e 9f 3c 9c f4 65 3c 05 b5 27 bd 41 e5 15 3d
       0.019446831 0.01403537 -0.040944118 0.036595587
0000f0 97 7f 0e 3d 45 94 08 3b b7 b7 5d 3c 60 46 a2 bc
       0.034789648 0.0020840329 0.013532571 -0.019808948
000100 01 06 08 3e d0 bd 9f 3c 87 17 8b bc e8 82 10 bd
       0.1328354 0.01949969 -0.016978992 -0.035281092
000110 cf af 57 bb d2 c1 b0 bc 39 f9 2b bb 92 f2 55 3d
       -0.0032911187 -0.021576796 -0.0026241078 0.052233286
000120 7d d0 e0 bb af c1 f4 bc a7 3d 1e 3c 48 da 53 bd
       -0.0068607912 -0.029877512 0.009658254 -0.05172184
000130 53 a5 86 3d 5f 3e 06 3d 46 e0 d9 bc 15 c4 d2 bb
       0.06574502 0.032774325 -0.0265962 -0.006432066
000140 42 41 06 bd 47 f3 a6 bd bd 83 63 3c d2 76 e4 bc
       -0.03277708 -0.0815187 0.013886389 -0.02788869
000150 9e cc 0d 3b 7f 46 b8 bc 3f ea c6 bc 7e 02 2b bc
       0.0021636854 -0.022494553 -0.02428162 -0.010437606
000160 cc 60 a1 3d 40 9f 01 3d 9a 3a df 3c 18 65 d2 bc
       0.07879791 0.031646013 0.027249623 -0.02568297
000170 8a 9c 21 bd 41 d5 a0 bc 92 e9 00 bd 41 6c 0d 3d
       -0.039455928 -0.019632937 -0.03147275 0.034527067
000180 67 bc e1 3c de 2e 85 3c 5e 77 90 3c d8 16 3a bd
       0.027555658 0.0162577 0.017635044 -0.04543194
